module @module {
  util.global private @__auto.time_embedding.linear_1.weight = #stream.parameter.named<"model"::"time_embedding.linear_1.weight"> : tensor<1280x320xf16>
  util.global private @__auto.time_embedding.linear_1.bias = #stream.parameter.named<"model"::"time_embedding.linear_1.bias"> : tensor<1280xf16>
  util.global private @__auto.time_embedding.linear_2.weight = #stream.parameter.named<"model"::"time_embedding.linear_2.weight"> : tensor<1280x1280xf16>
  util.global private @__auto.time_embedding.linear_2.bias = #stream.parameter.named<"model"::"time_embedding.linear_2.bias"> : tensor<1280xf16>
  util.global private @__auto.add_embedding.linear_1.weight = #stream.parameter.named<"model"::"add_embedding.linear_1.weight"> : tensor<1280x2816xf16>
  util.global private @__auto.add_embedding.linear_1.bias = #stream.parameter.named<"model"::"add_embedding.linear_1.bias"> : tensor<1280xf16>
  util.global private @__auto.add_embedding.linear_2.weight = #stream.parameter.named<"model"::"add_embedding.linear_2.weight"> : tensor<1280x1280xf16>
  util.global private @__auto.add_embedding.linear_2.bias = #stream.parameter.named<"model"::"add_embedding.linear_2.bias"> : tensor<1280xf16>
  util.global private @__auto.conv_in.weight = #stream.parameter.named<"model"::"conv_in.weight"> : tensor<320x4x3x3xf16>
  util.global private @__auto.conv_in.bias = #stream.parameter.named<"model"::"conv_in.bias"> : tensor<320xf16>
  util.global private @__auto.down_blocks.0.resnets.0.norm1.weight = #stream.parameter.named<"model"::"down_blocks.0.resnets.0.norm1.weight"> : tensor<320xf16>
  util.global private @__auto.down_blocks.0.resnets.0.norm1.bias = #stream.parameter.named<"model"::"down_blocks.0.resnets.0.norm1.bias"> : tensor<320xf16>
  util.global private @__auto.down_blocks.0.resnets.0.conv1.weight = #stream.parameter.named<"model"::"down_blocks.0.resnets.0.conv1.weight"> : tensor<320x320x3x3xf16>
  util.global private @__auto.down_blocks.0.resnets.0.conv1.bias = #stream.parameter.named<"model"::"down_blocks.0.resnets.0.conv1.bias"> : tensor<320xf16>
  util.global private @__auto.down_blocks.0.resnets.0.time_emb_proj.weight = #stream.parameter.named<"model"::"down_blocks.0.resnets.0.time_emb_proj.weight"> : tensor<320x1280xf16>
  util.global private @__auto.down_blocks.0.resnets.0.time_emb_proj.bias = #stream.parameter.named<"model"::"down_blocks.0.resnets.0.time_emb_proj.bias"> : tensor<320xf16>
  util.global private @__auto.down_blocks.0.resnets.0.norm2.weight = #stream.parameter.named<"model"::"down_blocks.0.resnets.0.norm2.weight"> : tensor<320xf16>
  util.global private @__auto.down_blocks.0.resnets.0.norm2.bias = #stream.parameter.named<"model"::"down_blocks.0.resnets.0.norm2.bias"> : tensor<320xf16>
  util.global private @__auto.down_blocks.0.resnets.0.conv2.weight = #stream.parameter.named<"model"::"down_blocks.0.resnets.0.conv2.weight"> : tensor<320x320x3x3xf16>
  util.global private @__auto.down_blocks.0.resnets.0.conv2.bias = #stream.parameter.named<"model"::"down_blocks.0.resnets.0.conv2.bias"> : tensor<320xf16>
  util.global private @__auto.down_blocks.0.resnets.1.norm1.weight = #stream.parameter.named<"model"::"down_blocks.0.resnets.1.norm1.weight"> : tensor<320xf16>
  util.global private @__auto.down_blocks.0.resnets.1.norm1.bias = #stream.parameter.named<"model"::"down_blocks.0.resnets.1.norm1.bias"> : tensor<320xf16>
  util.global private @__auto.down_blocks.0.resnets.1.conv1.weight = #stream.parameter.named<"model"::"down_blocks.0.resnets.1.conv1.weight"> : tensor<320x320x3x3xf16>
  util.global private @__auto.down_blocks.0.resnets.1.conv1.bias = #stream.parameter.named<"model"::"down_blocks.0.resnets.1.conv1.bias"> : tensor<320xf16>
  util.global private @__auto.down_blocks.0.resnets.1.time_emb_proj.weight = #stream.parameter.named<"model"::"down_blocks.0.resnets.1.time_emb_proj.weight"> : tensor<320x1280xf16>
  util.global private @__auto.down_blocks.0.resnets.1.time_emb_proj.bias = #stream.parameter.named<"model"::"down_blocks.0.resnets.1.time_emb_proj.bias"> : tensor<320xf16>
  util.global private @__auto.down_blocks.0.resnets.1.norm2.weight = #stream.parameter.named<"model"::"down_blocks.0.resnets.1.norm2.weight"> : tensor<320xf16>
  util.global private @__auto.down_blocks.0.resnets.1.norm2.bias = #stream.parameter.named<"model"::"down_blocks.0.resnets.1.norm2.bias"> : tensor<320xf16>
  util.global private @__auto.down_blocks.0.resnets.1.conv2.weight = #stream.parameter.named<"model"::"down_blocks.0.resnets.1.conv2.weight"> : tensor<320x320x3x3xf16>
  util.global private @__auto.down_blocks.0.resnets.1.conv2.bias = #stream.parameter.named<"model"::"down_blocks.0.resnets.1.conv2.bias"> : tensor<320xf16>
  util.global private @__auto.down_blocks.0.downsamplers.0.conv.weight = #stream.parameter.named<"model"::"down_blocks.0.downsamplers.0.conv.weight"> : tensor<320x320x3x3xf16>
  util.global private @__auto.down_blocks.0.downsamplers.0.conv.bias = #stream.parameter.named<"model"::"down_blocks.0.downsamplers.0.conv.bias"> : tensor<320xf16>
  util.global private @__auto.down_blocks.1.resnets.0.norm1.weight = #stream.parameter.named<"model"::"down_blocks.1.resnets.0.norm1.weight"> : tensor<320xf16>
  util.global private @__auto.down_blocks.1.resnets.0.norm1.bias = #stream.parameter.named<"model"::"down_blocks.1.resnets.0.norm1.bias"> : tensor<320xf16>
  util.global private @__auto.down_blocks.1.resnets.0.conv1.weight = #stream.parameter.named<"model"::"down_blocks.1.resnets.0.conv1.weight"> : tensor<640x320x3x3xf16>
  util.global private @__auto.down_blocks.1.resnets.0.conv1.bias = #stream.parameter.named<"model"::"down_blocks.1.resnets.0.conv1.bias"> : tensor<640xf16>
  util.global private @__auto.down_blocks.1.resnets.0.time_emb_proj.weight = #stream.parameter.named<"model"::"down_blocks.1.resnets.0.time_emb_proj.weight"> : tensor<640x1280xf16>
  util.global private @__auto.down_blocks.1.resnets.0.time_emb_proj.bias = #stream.parameter.named<"model"::"down_blocks.1.resnets.0.time_emb_proj.bias"> : tensor<640xf16>
  util.global private @__auto.down_blocks.1.resnets.0.norm2.weight = #stream.parameter.named<"model"::"down_blocks.1.resnets.0.norm2.weight"> : tensor<640xf16>
  util.global private @__auto.down_blocks.1.resnets.0.norm2.bias = #stream.parameter.named<"model"::"down_blocks.1.resnets.0.norm2.bias"> : tensor<640xf16>
  util.global private @__auto.down_blocks.1.resnets.0.conv2.weight = #stream.parameter.named<"model"::"down_blocks.1.resnets.0.conv2.weight"> : tensor<640x640x3x3xf16>
  util.global private @__auto.down_blocks.1.resnets.0.conv2.bias = #stream.parameter.named<"model"::"down_blocks.1.resnets.0.conv2.bias"> : tensor<640xf16>
  util.global private @__auto.down_blocks.1.resnets.0.conv_shortcut.weight = #stream.parameter.named<"model"::"down_blocks.1.resnets.0.conv_shortcut.weight"> : tensor<640x320x1x1xf16>
  util.global private @__auto.down_blocks.1.resnets.0.conv_shortcut.bias = #stream.parameter.named<"model"::"down_blocks.1.resnets.0.conv_shortcut.bias"> : tensor<640xf16>
  util.global private @__auto.down_blocks.1.attentions.0.norm.weight = #stream.parameter.named<"model"::"down_blocks.1.attentions.0.norm.weight"> : tensor<640xf16>
  util.global private @__auto.down_blocks.1.attentions.0.norm.bias = #stream.parameter.named<"model"::"down_blocks.1.attentions.0.norm.bias"> : tensor<640xf16>
  util.global private @__auto.down_blocks.1.attentions.0.proj_in.weight = #stream.parameter.named<"model"::"down_blocks.1.attentions.0.proj_in.weight"> : tensor<640x640xf16>
  util.global private @__auto.down_blocks.1.attentions.0.proj_in.bias = #stream.parameter.named<"model"::"down_blocks.1.attentions.0.proj_in.bias"> : tensor<640xf16>
  util.global private @__auto.down_blocks.1.attentions.0.transformer_blocks.0.norm1.weight = #stream.parameter.named<"model"::"down_blocks.1.attentions.0.transformer_blocks.0.norm1.weight"> : tensor<640xf16>
  util.global private @__auto.down_blocks.1.attentions.0.transformer_blocks.0.norm1.bias = #stream.parameter.named<"model"::"down_blocks.1.attentions.0.transformer_blocks.0.norm1.bias"> : tensor<640xf16>
  util.global private @__auto.down_blocks.1.attentions.0.transformer_blocks.0.attn1.to_q.weight = #stream.parameter.named<"model"::"down_blocks.1.attentions.0.transformer_blocks.0.attn1.to_q.weight"> : tensor<640x640xf16>
  util.global private @__auto.down_blocks.1.attentions.0.transformer_blocks.0.attn1.to_k.weight = #stream.parameter.named<"model"::"down_blocks.1.attentions.0.transformer_blocks.0.attn1.to_k.weight"> : tensor<640x640xf16>
  util.global private @__auto.down_blocks.1.attentions.0.transformer_blocks.0.attn1.to_v.weight = #stream.parameter.named<"model"::"down_blocks.1.attentions.0.transformer_blocks.0.attn1.to_v.weight"> : tensor<640x640xf16>
  util.global private @__auto.down_blocks.1.attentions.0.transformer_blocks.0.attn1.to_out.0.weight = #stream.parameter.named<"model"::"down_blocks.1.attentions.0.transformer_blocks.0.attn1.to_out.0.weight"> : tensor<640x640xf16>
  util.global private @__auto.down_blocks.1.attentions.0.transformer_blocks.0.attn1.to_out.0.bias = #stream.parameter.named<"model"::"down_blocks.1.attentions.0.transformer_blocks.0.attn1.to_out.0.bias"> : tensor<640xf16>
  util.global private @__auto.down_blocks.1.attentions.0.transformer_blocks.0.norm2.weight = #stream.parameter.named<"model"::"down_blocks.1.attentions.0.transformer_blocks.0.norm2.weight"> : tensor<640xf16>
  util.global private @__auto.down_blocks.1.attentions.0.transformer_blocks.0.norm2.bias = #stream.parameter.named<"model"::"down_blocks.1.attentions.0.transformer_blocks.0.norm2.bias"> : tensor<640xf16>
  util.global private @__auto.down_blocks.1.attentions.0.transformer_blocks.0.attn2.to_q.weight = #stream.parameter.named<"model"::"down_blocks.1.attentions.0.transformer_blocks.0.attn2.to_q.weight"> : tensor<640x640xf16>
  util.global private @__auto.down_blocks.1.attentions.0.transformer_blocks.0.attn2.to_k.weight = #stream.parameter.named<"model"::"down_blocks.1.attentions.0.transformer_blocks.0.attn2.to_k.weight"> : tensor<640x2048xf16>
  util.global private @__auto.down_blocks.1.attentions.0.transformer_blocks.0.attn2.to_v.weight = #stream.parameter.named<"model"::"down_blocks.1.attentions.0.transformer_blocks.0.attn2.to_v.weight"> : tensor<640x2048xf16>
  util.global private @__auto.down_blocks.1.attentions.0.transformer_blocks.0.attn2.to_out.0.weight = #stream.parameter.named<"model"::"down_blocks.1.attentions.0.transformer_blocks.0.attn2.to_out.0.weight"> : tensor<640x640xf16>
  util.global private @__auto.down_blocks.1.attentions.0.transformer_blocks.0.attn2.to_out.0.bias = #stream.parameter.named<"model"::"down_blocks.1.attentions.0.transformer_blocks.0.attn2.to_out.0.bias"> : tensor<640xf16>
  util.global private @__auto.down_blocks.1.attentions.0.transformer_blocks.0.norm3.weight = #stream.parameter.named<"model"::"down_blocks.1.attentions.0.transformer_blocks.0.norm3.weight"> : tensor<640xf16>
  util.global private @__auto.down_blocks.1.attentions.0.transformer_blocks.0.norm3.bias = #stream.parameter.named<"model"::"down_blocks.1.attentions.0.transformer_blocks.0.norm3.bias"> : tensor<640xf16>
  util.global private @__auto.down_blocks.1.attentions.0.transformer_blocks.0.ff.net.0.proj.weight = #stream.parameter.named<"model"::"down_blocks.1.attentions.0.transformer_blocks.0.ff.net.0.proj.weight"> : tensor<5120x640xf16>
  util.global private @__auto.down_blocks.1.attentions.0.transformer_blocks.0.ff.net.0.proj.bias = #stream.parameter.named<"model"::"down_blocks.1.attentions.0.transformer_blocks.0.ff.net.0.proj.bias"> : tensor<5120xf16>
  util.global private @__auto.down_blocks.1.attentions.0.transformer_blocks.0.ff.net.2.weight = #stream.parameter.named<"model"::"down_blocks.1.attentions.0.transformer_blocks.0.ff.net.2.weight"> : tensor<640x2560xf16>
  util.global private @__auto.down_blocks.1.attentions.0.transformer_blocks.0.ff.net.2.bias = #stream.parameter.named<"model"::"down_blocks.1.attentions.0.transformer_blocks.0.ff.net.2.bias"> : tensor<640xf16>
  util.global private @__auto.down_blocks.1.attentions.0.transformer_blocks.1.norm1.weight = #stream.parameter.named<"model"::"down_blocks.1.attentions.0.transformer_blocks.1.norm1.weight"> : tensor<640xf16>
  util.global private @__auto.down_blocks.1.attentions.0.transformer_blocks.1.norm1.bias = #stream.parameter.named<"model"::"down_blocks.1.attentions.0.transformer_blocks.1.norm1.bias"> : tensor<640xf16>
  util.global private @__auto.down_blocks.1.attentions.0.transformer_blocks.1.attn1.to_q.weight = #stream.parameter.named<"model"::"down_blocks.1.attentions.0.transformer_blocks.1.attn1.to_q.weight"> : tensor<640x640xf16>
  util.global private @__auto.down_blocks.1.attentions.0.transformer_blocks.1.attn1.to_k.weight = #stream.parameter.named<"model"::"down_blocks.1.attentions.0.transformer_blocks.1.attn1.to_k.weight"> : tensor<640x640xf16>
  util.global private @__auto.down_blocks.1.attentions.0.transformer_blocks.1.attn1.to_v.weight = #stream.parameter.named<"model"::"down_blocks.1.attentions.0.transformer_blocks.1.attn1.to_v.weight"> : tensor<640x640xf16>
  util.global private @__auto.down_blocks.1.attentions.0.transformer_blocks.1.attn1.to_out.0.weight = #stream.parameter.named<"model"::"down_blocks.1.attentions.0.transformer_blocks.1.attn1.to_out.0.weight"> : tensor<640x640xf16>
  util.global private @__auto.down_blocks.1.attentions.0.transformer_blocks.1.attn1.to_out.0.bias = #stream.parameter.named<"model"::"down_blocks.1.attentions.0.transformer_blocks.1.attn1.to_out.0.bias"> : tensor<640xf16>
  util.global private @__auto.down_blocks.1.attentions.0.transformer_blocks.1.norm2.weight = #stream.parameter.named<"model"::"down_blocks.1.attentions.0.transformer_blocks.1.norm2.weight"> : tensor<640xf16>
  util.global private @__auto.down_blocks.1.attentions.0.transformer_blocks.1.norm2.bias = #stream.parameter.named<"model"::"down_blocks.1.attentions.0.transformer_blocks.1.norm2.bias"> : tensor<640xf16>
  util.global private @__auto.down_blocks.1.attentions.0.transformer_blocks.1.attn2.to_q.weight = #stream.parameter.named<"model"::"down_blocks.1.attentions.0.transformer_blocks.1.attn2.to_q.weight"> : tensor<640x640xf16>
  util.global private @__auto.down_blocks.1.attentions.0.transformer_blocks.1.attn2.to_k.weight = #stream.parameter.named<"model"::"down_blocks.1.attentions.0.transformer_blocks.1.attn2.to_k.weight"> : tensor<640x2048xf16>
  util.global private @__auto.down_blocks.1.attentions.0.transformer_blocks.1.attn2.to_v.weight = #stream.parameter.named<"model"::"down_blocks.1.attentions.0.transformer_blocks.1.attn2.to_v.weight"> : tensor<640x2048xf16>
  util.global private @__auto.down_blocks.1.attentions.0.transformer_blocks.1.attn2.to_out.0.weight = #stream.parameter.named<"model"::"down_blocks.1.attentions.0.transformer_blocks.1.attn2.to_out.0.weight"> : tensor<640x640xf16>
  util.global private @__auto.down_blocks.1.attentions.0.transformer_blocks.1.attn2.to_out.0.bias = #stream.parameter.named<"model"::"down_blocks.1.attentions.0.transformer_blocks.1.attn2.to_out.0.bias"> : tensor<640xf16>
  util.global private @__auto.down_blocks.1.attentions.0.transformer_blocks.1.norm3.weight = #stream.parameter.named<"model"::"down_blocks.1.attentions.0.transformer_blocks.1.norm3.weight"> : tensor<640xf16>
  util.global private @__auto.down_blocks.1.attentions.0.transformer_blocks.1.norm3.bias = #stream.parameter.named<"model"::"down_blocks.1.attentions.0.transformer_blocks.1.norm3.bias"> : tensor<640xf16>
  util.global private @__auto.down_blocks.1.attentions.0.transformer_blocks.1.ff.net.0.proj.weight = #stream.parameter.named<"model"::"down_blocks.1.attentions.0.transformer_blocks.1.ff.net.0.proj.weight"> : tensor<5120x640xf16>
  util.global private @__auto.down_blocks.1.attentions.0.transformer_blocks.1.ff.net.0.proj.bias = #stream.parameter.named<"model"::"down_blocks.1.attentions.0.transformer_blocks.1.ff.net.0.proj.bias"> : tensor<5120xf16>
  util.global private @__auto.down_blocks.1.attentions.0.transformer_blocks.1.ff.net.2.weight = #stream.parameter.named<"model"::"down_blocks.1.attentions.0.transformer_blocks.1.ff.net.2.weight"> : tensor<640x2560xf16>
  util.global private @__auto.down_blocks.1.attentions.0.transformer_blocks.1.ff.net.2.bias = #stream.parameter.named<"model"::"down_blocks.1.attentions.0.transformer_blocks.1.ff.net.2.bias"> : tensor<640xf16>
  util.global private @__auto.down_blocks.1.attentions.0.proj_out.weight = #stream.parameter.named<"model"::"down_blocks.1.attentions.0.proj_out.weight"> : tensor<640x640xf16>
  util.global private @__auto.down_blocks.1.attentions.0.proj_out.bias = #stream.parameter.named<"model"::"down_blocks.1.attentions.0.proj_out.bias"> : tensor<640xf16>
  util.global private @__auto.down_blocks.1.resnets.1.norm1.weight = #stream.parameter.named<"model"::"down_blocks.1.resnets.1.norm1.weight"> : tensor<640xf16>
  util.global private @__auto.down_blocks.1.resnets.1.norm1.bias = #stream.parameter.named<"model"::"down_blocks.1.resnets.1.norm1.bias"> : tensor<640xf16>
  util.global private @__auto.down_blocks.1.resnets.1.conv1.weight = #stream.parameter.named<"model"::"down_blocks.1.resnets.1.conv1.weight"> : tensor<640x640x3x3xf16>
  util.global private @__auto.down_blocks.1.resnets.1.conv1.bias = #stream.parameter.named<"model"::"down_blocks.1.resnets.1.conv1.bias"> : tensor<640xf16>
  util.global private @__auto.down_blocks.1.resnets.1.time_emb_proj.weight = #stream.parameter.named<"model"::"down_blocks.1.resnets.1.time_emb_proj.weight"> : tensor<640x1280xf16>
  util.global private @__auto.down_blocks.1.resnets.1.time_emb_proj.bias = #stream.parameter.named<"model"::"down_blocks.1.resnets.1.time_emb_proj.bias"> : tensor<640xf16>
  util.global private @__auto.down_blocks.1.resnets.1.norm2.weight = #stream.parameter.named<"model"::"down_blocks.1.resnets.1.norm2.weight"> : tensor<640xf16>
  util.global private @__auto.down_blocks.1.resnets.1.norm2.bias = #stream.parameter.named<"model"::"down_blocks.1.resnets.1.norm2.bias"> : tensor<640xf16>
  util.global private @__auto.down_blocks.1.resnets.1.conv2.weight = #stream.parameter.named<"model"::"down_blocks.1.resnets.1.conv2.weight"> : tensor<640x640x3x3xf16>
  util.global private @__auto.down_blocks.1.resnets.1.conv2.bias = #stream.parameter.named<"model"::"down_blocks.1.resnets.1.conv2.bias"> : tensor<640xf16>
  util.global private @__auto.down_blocks.1.attentions.1.norm.weight = #stream.parameter.named<"model"::"down_blocks.1.attentions.1.norm.weight"> : tensor<640xf16>
  util.global private @__auto.down_blocks.1.attentions.1.norm.bias = #stream.parameter.named<"model"::"down_blocks.1.attentions.1.norm.bias"> : tensor<640xf16>
  util.global private @__auto.down_blocks.1.attentions.1.proj_in.weight = #stream.parameter.named<"model"::"down_blocks.1.attentions.1.proj_in.weight"> : tensor<640x640xf16>
  util.global private @__auto.down_blocks.1.attentions.1.proj_in.bias = #stream.parameter.named<"model"::"down_blocks.1.attentions.1.proj_in.bias"> : tensor<640xf16>
  util.global private @__auto.down_blocks.1.attentions.1.transformer_blocks.0.norm1.weight = #stream.parameter.named<"model"::"down_blocks.1.attentions.1.transformer_blocks.0.norm1.weight"> : tensor<640xf16>
  util.global private @__auto.down_blocks.1.attentions.1.transformer_blocks.0.norm1.bias = #stream.parameter.named<"model"::"down_blocks.1.attentions.1.transformer_blocks.0.norm1.bias"> : tensor<640xf16>
  util.global private @__auto.down_blocks.1.attentions.1.transformer_blocks.0.attn1.to_q.weight = #stream.parameter.named<"model"::"down_blocks.1.attentions.1.transformer_blocks.0.attn1.to_q.weight"> : tensor<640x640xf16>
  util.global private @__auto.down_blocks.1.attentions.1.transformer_blocks.0.attn1.to_k.weight = #stream.parameter.named<"model"::"down_blocks.1.attentions.1.transformer_blocks.0.attn1.to_k.weight"> : tensor<640x640xf16>
  util.global private @__auto.down_blocks.1.attentions.1.transformer_blocks.0.attn1.to_v.weight = #stream.parameter.named<"model"::"down_blocks.1.attentions.1.transformer_blocks.0.attn1.to_v.weight"> : tensor<640x640xf16>
  util.global private @__auto.down_blocks.1.attentions.1.transformer_blocks.0.attn1.to_out.0.weight = #stream.parameter.named<"model"::"down_blocks.1.attentions.1.transformer_blocks.0.attn1.to_out.0.weight"> : tensor<640x640xf16>
  util.global private @__auto.down_blocks.1.attentions.1.transformer_blocks.0.attn1.to_out.0.bias = #stream.parameter.named<"model"::"down_blocks.1.attentions.1.transformer_blocks.0.attn1.to_out.0.bias"> : tensor<640xf16>
  util.global private @__auto.down_blocks.1.attentions.1.transformer_blocks.0.norm2.weight = #stream.parameter.named<"model"::"down_blocks.1.attentions.1.transformer_blocks.0.norm2.weight"> : tensor<640xf16>
  util.global private @__auto.down_blocks.1.attentions.1.transformer_blocks.0.norm2.bias = #stream.parameter.named<"model"::"down_blocks.1.attentions.1.transformer_blocks.0.norm2.bias"> : tensor<640xf16>
  util.global private @__auto.down_blocks.1.attentions.1.transformer_blocks.0.attn2.to_q.weight = #stream.parameter.named<"model"::"down_blocks.1.attentions.1.transformer_blocks.0.attn2.to_q.weight"> : tensor<640x640xf16>
  util.global private @__auto.down_blocks.1.attentions.1.transformer_blocks.0.attn2.to_k.weight = #stream.parameter.named<"model"::"down_blocks.1.attentions.1.transformer_blocks.0.attn2.to_k.weight"> : tensor<640x2048xf16>
  util.global private @__auto.down_blocks.1.attentions.1.transformer_blocks.0.attn2.to_v.weight = #stream.parameter.named<"model"::"down_blocks.1.attentions.1.transformer_blocks.0.attn2.to_v.weight"> : tensor<640x2048xf16>
  util.global private @__auto.down_blocks.1.attentions.1.transformer_blocks.0.attn2.to_out.0.weight = #stream.parameter.named<"model"::"down_blocks.1.attentions.1.transformer_blocks.0.attn2.to_out.0.weight"> : tensor<640x640xf16>
  util.global private @__auto.down_blocks.1.attentions.1.transformer_blocks.0.attn2.to_out.0.bias = #stream.parameter.named<"model"::"down_blocks.1.attentions.1.transformer_blocks.0.attn2.to_out.0.bias"> : tensor<640xf16>
  util.global private @__auto.down_blocks.1.attentions.1.transformer_blocks.0.norm3.weight = #stream.parameter.named<"model"::"down_blocks.1.attentions.1.transformer_blocks.0.norm3.weight"> : tensor<640xf16>
  util.global private @__auto.down_blocks.1.attentions.1.transformer_blocks.0.norm3.bias = #stream.parameter.named<"model"::"down_blocks.1.attentions.1.transformer_blocks.0.norm3.bias"> : tensor<640xf16>
  util.global private @__auto.down_blocks.1.attentions.1.transformer_blocks.0.ff.net.0.proj.weight = #stream.parameter.named<"model"::"down_blocks.1.attentions.1.transformer_blocks.0.ff.net.0.proj.weight"> : tensor<5120x640xf16>
  util.global private @__auto.down_blocks.1.attentions.1.transformer_blocks.0.ff.net.0.proj.bias = #stream.parameter.named<"model"::"down_blocks.1.attentions.1.transformer_blocks.0.ff.net.0.proj.bias"> : tensor<5120xf16>
  util.global private @__auto.down_blocks.1.attentions.1.transformer_blocks.0.ff.net.2.weight = #stream.parameter.named<"model"::"down_blocks.1.attentions.1.transformer_blocks.0.ff.net.2.weight"> : tensor<640x2560xf16>
  util.global private @__auto.down_blocks.1.attentions.1.transformer_blocks.0.ff.net.2.bias = #stream.parameter.named<"model"::"down_blocks.1.attentions.1.transformer_blocks.0.ff.net.2.bias"> : tensor<640xf16>
  util.global private @__auto.down_blocks.1.attentions.1.transformer_blocks.1.norm1.weight = #stream.parameter.named<"model"::"down_blocks.1.attentions.1.transformer_blocks.1.norm1.weight"> : tensor<640xf16>
  util.global private @__auto.down_blocks.1.attentions.1.transformer_blocks.1.norm1.bias = #stream.parameter.named<"model"::"down_blocks.1.attentions.1.transformer_blocks.1.norm1.bias"> : tensor<640xf16>
  util.global private @__auto.down_blocks.1.attentions.1.transformer_blocks.1.attn1.to_q.weight = #stream.parameter.named<"model"::"down_blocks.1.attentions.1.transformer_blocks.1.attn1.to_q.weight"> : tensor<640x640xf16>
  util.global private @__auto.down_blocks.1.attentions.1.transformer_blocks.1.attn1.to_k.weight = #stream.parameter.named<"model"::"down_blocks.1.attentions.1.transformer_blocks.1.attn1.to_k.weight"> : tensor<640x640xf16>
  util.global private @__auto.down_blocks.1.attentions.1.transformer_blocks.1.attn1.to_v.weight = #stream.parameter.named<"model"::"down_blocks.1.attentions.1.transformer_blocks.1.attn1.to_v.weight"> : tensor<640x640xf16>
  util.global private @__auto.down_blocks.1.attentions.1.transformer_blocks.1.attn1.to_out.0.weight = #stream.parameter.named<"model"::"down_blocks.1.attentions.1.transformer_blocks.1.attn1.to_out.0.weight"> : tensor<640x640xf16>
  util.global private @__auto.down_blocks.1.attentions.1.transformer_blocks.1.attn1.to_out.0.bias = #stream.parameter.named<"model"::"down_blocks.1.attentions.1.transformer_blocks.1.attn1.to_out.0.bias"> : tensor<640xf16>
  util.global private @__auto.down_blocks.1.attentions.1.transformer_blocks.1.norm2.weight = #stream.parameter.named<"model"::"down_blocks.1.attentions.1.transformer_blocks.1.norm2.weight"> : tensor<640xf16>
  util.global private @__auto.down_blocks.1.attentions.1.transformer_blocks.1.norm2.bias = #stream.parameter.named<"model"::"down_blocks.1.attentions.1.transformer_blocks.1.norm2.bias"> : tensor<640xf16>
  util.global private @__auto.down_blocks.1.attentions.1.transformer_blocks.1.attn2.to_q.weight = #stream.parameter.named<"model"::"down_blocks.1.attentions.1.transformer_blocks.1.attn2.to_q.weight"> : tensor<640x640xf16>
  util.global private @__auto.down_blocks.1.attentions.1.transformer_blocks.1.attn2.to_k.weight = #stream.parameter.named<"model"::"down_blocks.1.attentions.1.transformer_blocks.1.attn2.to_k.weight"> : tensor<640x2048xf16>
  util.global private @__auto.down_blocks.1.attentions.1.transformer_blocks.1.attn2.to_v.weight = #stream.parameter.named<"model"::"down_blocks.1.attentions.1.transformer_blocks.1.attn2.to_v.weight"> : tensor<640x2048xf16>
  util.global private @__auto.down_blocks.1.attentions.1.transformer_blocks.1.attn2.to_out.0.weight = #stream.parameter.named<"model"::"down_blocks.1.attentions.1.transformer_blocks.1.attn2.to_out.0.weight"> : tensor<640x640xf16>
  util.global private @__auto.down_blocks.1.attentions.1.transformer_blocks.1.attn2.to_out.0.bias = #stream.parameter.named<"model"::"down_blocks.1.attentions.1.transformer_blocks.1.attn2.to_out.0.bias"> : tensor<640xf16>
  util.global private @__auto.down_blocks.1.attentions.1.transformer_blocks.1.norm3.weight = #stream.parameter.named<"model"::"down_blocks.1.attentions.1.transformer_blocks.1.norm3.weight"> : tensor<640xf16>
  util.global private @__auto.down_blocks.1.attentions.1.transformer_blocks.1.norm3.bias = #stream.parameter.named<"model"::"down_blocks.1.attentions.1.transformer_blocks.1.norm3.bias"> : tensor<640xf16>
  util.global private @__auto.down_blocks.1.attentions.1.transformer_blocks.1.ff.net.0.proj.weight = #stream.parameter.named<"model"::"down_blocks.1.attentions.1.transformer_blocks.1.ff.net.0.proj.weight"> : tensor<5120x640xf16>
  util.global private @__auto.down_blocks.1.attentions.1.transformer_blocks.1.ff.net.0.proj.bias = #stream.parameter.named<"model"::"down_blocks.1.attentions.1.transformer_blocks.1.ff.net.0.proj.bias"> : tensor<5120xf16>
  util.global private @__auto.down_blocks.1.attentions.1.transformer_blocks.1.ff.net.2.weight = #stream.parameter.named<"model"::"down_blocks.1.attentions.1.transformer_blocks.1.ff.net.2.weight"> : tensor<640x2560xf16>
  util.global private @__auto.down_blocks.1.attentions.1.transformer_blocks.1.ff.net.2.bias = #stream.parameter.named<"model"::"down_blocks.1.attentions.1.transformer_blocks.1.ff.net.2.bias"> : tensor<640xf16>
  util.global private @__auto.down_blocks.1.attentions.1.proj_out.weight = #stream.parameter.named<"model"::"down_blocks.1.attentions.1.proj_out.weight"> : tensor<640x640xf16>
  util.global private @__auto.down_blocks.1.attentions.1.proj_out.bias = #stream.parameter.named<"model"::"down_blocks.1.attentions.1.proj_out.bias"> : tensor<640xf16>
  util.global private @__auto.down_blocks.1.downsamplers.0.conv.weight = #stream.parameter.named<"model"::"down_blocks.1.downsamplers.0.conv.weight"> : tensor<640x640x3x3xf16>
  util.global private @__auto.down_blocks.1.downsamplers.0.conv.bias = #stream.parameter.named<"model"::"down_blocks.1.downsamplers.0.conv.bias"> : tensor<640xf16>
  util.global private @__auto.down_blocks.2.resnets.0.norm1.weight = #stream.parameter.named<"model"::"down_blocks.2.resnets.0.norm1.weight"> : tensor<640xf16>
  util.global private @__auto.down_blocks.2.resnets.0.norm1.bias = #stream.parameter.named<"model"::"down_blocks.2.resnets.0.norm1.bias"> : tensor<640xf16>
  util.global private @__auto.down_blocks.2.resnets.0.conv1.weight = #stream.parameter.named<"model"::"down_blocks.2.resnets.0.conv1.weight"> : tensor<1280x640x3x3xf16>
  util.global private @__auto.down_blocks.2.resnets.0.conv1.bias = #stream.parameter.named<"model"::"down_blocks.2.resnets.0.conv1.bias"> : tensor<1280xf16>
  util.global private @__auto.down_blocks.2.resnets.0.time_emb_proj.weight = #stream.parameter.named<"model"::"down_blocks.2.resnets.0.time_emb_proj.weight"> : tensor<1280x1280xf16>
  util.global private @__auto.down_blocks.2.resnets.0.time_emb_proj.bias = #stream.parameter.named<"model"::"down_blocks.2.resnets.0.time_emb_proj.bias"> : tensor<1280xf16>
  util.global private @__auto.down_blocks.2.resnets.0.norm2.weight = #stream.parameter.named<"model"::"down_blocks.2.resnets.0.norm2.weight"> : tensor<1280xf16>
  util.global private @__auto.down_blocks.2.resnets.0.norm2.bias = #stream.parameter.named<"model"::"down_blocks.2.resnets.0.norm2.bias"> : tensor<1280xf16>
  util.global private @__auto.down_blocks.2.resnets.0.conv2.weight = #stream.parameter.named<"model"::"down_blocks.2.resnets.0.conv2.weight"> : tensor<1280x1280x3x3xf16>
  util.global private @__auto.down_blocks.2.resnets.0.conv2.bias = #stream.parameter.named<"model"::"down_blocks.2.resnets.0.conv2.bias"> : tensor<1280xf16>
  util.global private @__auto.down_blocks.2.resnets.0.conv_shortcut.weight = #stream.parameter.named<"model"::"down_blocks.2.resnets.0.conv_shortcut.weight"> : tensor<1280x640x1x1xf16>
  util.global private @__auto.down_blocks.2.resnets.0.conv_shortcut.bias = #stream.parameter.named<"model"::"down_blocks.2.resnets.0.conv_shortcut.bias"> : tensor<1280xf16>
  util.global private @__auto.down_blocks.2.attentions.0.norm.weight = #stream.parameter.named<"model"::"down_blocks.2.attentions.0.norm.weight"> : tensor<1280xf16>
  util.global private @__auto.down_blocks.2.attentions.0.norm.bias = #stream.parameter.named<"model"::"down_blocks.2.attentions.0.norm.bias"> : tensor<1280xf16>
  util.global private @__auto.down_blocks.2.attentions.0.proj_in.weight = #stream.parameter.named<"model"::"down_blocks.2.attentions.0.proj_in.weight"> : tensor<1280x1280xf16>
  util.global private @__auto.down_blocks.2.attentions.0.proj_in.bias = #stream.parameter.named<"model"::"down_blocks.2.attentions.0.proj_in.bias"> : tensor<1280xf16>
  util.global private @__auto.down_blocks.2.attentions.0.transformer_blocks.0.norm1.weight = #stream.parameter.named<"model"::"down_blocks.2.attentions.0.transformer_blocks.0.norm1.weight"> : tensor<1280xf16>
  util.global private @__auto.down_blocks.2.attentions.0.transformer_blocks.0.norm1.bias = #stream.parameter.named<"model"::"down_blocks.2.attentions.0.transformer_blocks.0.norm1.bias"> : tensor<1280xf16>
  util.global private @__auto.down_blocks.2.attentions.0.transformer_blocks.0.attn1.to_q.weight = #stream.parameter.named<"model"::"down_blocks.2.attentions.0.transformer_blocks.0.attn1.to_q.weight"> : tensor<1280x1280xf16>
  util.global private @__auto.down_blocks.2.attentions.0.transformer_blocks.0.attn1.to_k.weight = #stream.parameter.named<"model"::"down_blocks.2.attentions.0.transformer_blocks.0.attn1.to_k.weight"> : tensor<1280x1280xf16>
  util.global private @__auto.down_blocks.2.attentions.0.transformer_blocks.0.attn1.to_v.weight = #stream.parameter.named<"model"::"down_blocks.2.attentions.0.transformer_blocks.0.attn1.to_v.weight"> : tensor<1280x1280xf16>
  util.global private @__auto.down_blocks.2.attentions.0.transformer_blocks.0.attn1.to_out.0.weight = #stream.parameter.named<"model"::"down_blocks.2.attentions.0.transformer_blocks.0.attn1.to_out.0.weight"> : tensor<1280x1280xf16>
  util.global private @__auto.down_blocks.2.attentions.0.transformer_blocks.0.attn1.to_out.0.bias = #stream.parameter.named<"model"::"down_blocks.2.attentions.0.transformer_blocks.0.attn1.to_out.0.bias"> : tensor<1280xf16>
  util.global private @__auto.down_blocks.2.attentions.0.transformer_blocks.0.norm2.weight = #stream.parameter.named<"model"::"down_blocks.2.attentions.0.transformer_blocks.0.norm2.weight"> : tensor<1280xf16>
  util.global private @__auto.down_blocks.2.attentions.0.transformer_blocks.0.norm2.bias = #stream.parameter.named<"model"::"down_blocks.2.attentions.0.transformer_blocks.0.norm2.bias"> : tensor<1280xf16>
  util.global private @__auto.down_blocks.2.attentions.0.transformer_blocks.0.attn2.to_q.weight = #stream.parameter.named<"model"::"down_blocks.2.attentions.0.transformer_blocks.0.attn2.to_q.weight"> : tensor<1280x1280xf16>
  util.global private @__auto.down_blocks.2.attentions.0.transformer_blocks.0.attn2.to_k.weight = #stream.parameter.named<"model"::"down_blocks.2.attentions.0.transformer_blocks.0.attn2.to_k.weight"> : tensor<1280x2048xf16>
  util.global private @__auto.down_blocks.2.attentions.0.transformer_blocks.0.attn2.to_v.weight = #stream.parameter.named<"model"::"down_blocks.2.attentions.0.transformer_blocks.0.attn2.to_v.weight"> : tensor<1280x2048xf16>
  util.global private @__auto.down_blocks.2.attentions.0.transformer_blocks.0.attn2.to_out.0.weight = #stream.parameter.named<"model"::"down_blocks.2.attentions.0.transformer_blocks.0.attn2.to_out.0.weight"> : tensor<1280x1280xf16>
  util.global private @__auto.down_blocks.2.attentions.0.transformer_blocks.0.attn2.to_out.0.bias = #stream.parameter.named<"model"::"down_blocks.2.attentions.0.transformer_blocks.0.attn2.to_out.0.bias"> : tensor<1280xf16>
  util.global private @__auto.down_blocks.2.attentions.0.transformer_blocks.0.norm3.weight = #stream.parameter.named<"model"::"down_blocks.2.attentions.0.transformer_blocks.0.norm3.weight"> : tensor<1280xf16>
  util.global private @__auto.down_blocks.2.attentions.0.transformer_blocks.0.norm3.bias = #stream.parameter.named<"model"::"down_blocks.2.attentions.0.transformer_blocks.0.norm3.bias"> : tensor<1280xf16>
  util.global private @__auto.down_blocks.2.attentions.0.transformer_blocks.0.ff.net.0.proj.weight = #stream.parameter.named<"model"::"down_blocks.2.attentions.0.transformer_blocks.0.ff.net.0.proj.weight"> : tensor<10240x1280xf16>
  util.global private @__auto.down_blocks.2.attentions.0.transformer_blocks.0.ff.net.0.proj.bias = #stream.parameter.named<"model"::"down_blocks.2.attentions.0.transformer_blocks.0.ff.net.0.proj.bias"> : tensor<10240xf16>
  util.global private @__auto.down_blocks.2.attentions.0.transformer_blocks.0.ff.net.2.weight = #stream.parameter.named<"model"::"down_blocks.2.attentions.0.transformer_blocks.0.ff.net.2.weight"> : tensor<1280x5120xf16>
  util.global private @__auto.down_blocks.2.attentions.0.transformer_blocks.0.ff.net.2.bias = #stream.parameter.named<"model"::"down_blocks.2.attentions.0.transformer_blocks.0.ff.net.2.bias"> : tensor<1280xf16>
  util.global private @__auto.down_blocks.2.attentions.0.transformer_blocks.1.norm1.weight = #stream.parameter.named<"model"::"down_blocks.2.attentions.0.transformer_blocks.1.norm1.weight"> : tensor<1280xf16>
  util.global private @__auto.down_blocks.2.attentions.0.transformer_blocks.1.norm1.bias = #stream.parameter.named<"model"::"down_blocks.2.attentions.0.transformer_blocks.1.norm1.bias"> : tensor<1280xf16>
  util.global private @__auto.down_blocks.2.attentions.0.transformer_blocks.1.attn1.to_q.weight = #stream.parameter.named<"model"::"down_blocks.2.attentions.0.transformer_blocks.1.attn1.to_q.weight"> : tensor<1280x1280xf16>
  util.global private @__auto.down_blocks.2.attentions.0.transformer_blocks.1.attn1.to_k.weight = #stream.parameter.named<"model"::"down_blocks.2.attentions.0.transformer_blocks.1.attn1.to_k.weight"> : tensor<1280x1280xf16>
  util.global private @__auto.down_blocks.2.attentions.0.transformer_blocks.1.attn1.to_v.weight = #stream.parameter.named<"model"::"down_blocks.2.attentions.0.transformer_blocks.1.attn1.to_v.weight"> : tensor<1280x1280xf16>
  util.global private @__auto.down_blocks.2.attentions.0.transformer_blocks.1.attn1.to_out.0.weight = #stream.parameter.named<"model"::"down_blocks.2.attentions.0.transformer_blocks.1.attn1.to_out.0.weight"> : tensor<1280x1280xf16>
  util.global private @__auto.down_blocks.2.attentions.0.transformer_blocks.1.attn1.to_out.0.bias = #stream.parameter.named<"model"::"down_blocks.2.attentions.0.transformer_blocks.1.attn1.to_out.0.bias"> : tensor<1280xf16>
  util.global private @__auto.down_blocks.2.attentions.0.transformer_blocks.1.norm2.weight = #stream.parameter.named<"model"::"down_blocks.2.attentions.0.transformer_blocks.1.norm2.weight"> : tensor<1280xf16>
  util.global private @__auto.down_blocks.2.attentions.0.transformer_blocks.1.norm2.bias = #stream.parameter.named<"model"::"down_blocks.2.attentions.0.transformer_blocks.1.norm2.bias"> : tensor<1280xf16>
  util.global private @__auto.down_blocks.2.attentions.0.transformer_blocks.1.attn2.to_q.weight = #stream.parameter.named<"model"::"down_blocks.2.attentions.0.transformer_blocks.1.attn2.to_q.weight"> : tensor<1280x1280xf16>
  util.global private @__auto.down_blocks.2.attentions.0.transformer_blocks.1.attn2.to_k.weight = #stream.parameter.named<"model"::"down_blocks.2.attentions.0.transformer_blocks.1.attn2.to_k.weight"> : tensor<1280x2048xf16>
  util.global private @__auto.down_blocks.2.attentions.0.transformer_blocks.1.attn2.to_v.weight = #stream.parameter.named<"model"::"down_blocks.2.attentions.0.transformer_blocks.1.attn2.to_v.weight"> : tensor<1280x2048xf16>
  util.global private @__auto.down_blocks.2.attentions.0.transformer_blocks.1.attn2.to_out.0.weight = #stream.parameter.named<"model"::"down_blocks.2.attentions.0.transformer_blocks.1.attn2.to_out.0.weight"> : tensor<1280x1280xf16>
  util.global private @__auto.down_blocks.2.attentions.0.transformer_blocks.1.attn2.to_out.0.bias = #stream.parameter.named<"model"::"down_blocks.2.attentions.0.transformer_blocks.1.attn2.to_out.0.bias"> : tensor<1280xf16>
  util.global private @__auto.down_blocks.2.attentions.0.transformer_blocks.1.norm3.weight = #stream.parameter.named<"model"::"down_blocks.2.attentions.0.transformer_blocks.1.norm3.weight"> : tensor<1280xf16>
  util.global private @__auto.down_blocks.2.attentions.0.transformer_blocks.1.norm3.bias = #stream.parameter.named<"model"::"down_blocks.2.attentions.0.transformer_blocks.1.norm3.bias"> : tensor<1280xf16>
  util.global private @__auto.down_blocks.2.attentions.0.transformer_blocks.1.ff.net.0.proj.weight = #stream.parameter.named<"model"::"down_blocks.2.attentions.0.transformer_blocks.1.ff.net.0.proj.weight"> : tensor<10240x1280xf16>
  util.global private @__auto.down_blocks.2.attentions.0.transformer_blocks.1.ff.net.0.proj.bias = #stream.parameter.named<"model"::"down_blocks.2.attentions.0.transformer_blocks.1.ff.net.0.proj.bias"> : tensor<10240xf16>
  util.global private @__auto.down_blocks.2.attentions.0.transformer_blocks.1.ff.net.2.weight = #stream.parameter.named<"model"::"down_blocks.2.attentions.0.transformer_blocks.1.ff.net.2.weight"> : tensor<1280x5120xf16>
  util.global private @__auto.down_blocks.2.attentions.0.transformer_blocks.1.ff.net.2.bias = #stream.parameter.named<"model"::"down_blocks.2.attentions.0.transformer_blocks.1.ff.net.2.bias"> : tensor<1280xf16>
  util.global private @__auto.down_blocks.2.attentions.0.transformer_blocks.2.norm1.weight = #stream.parameter.named<"model"::"down_blocks.2.attentions.0.transformer_blocks.2.norm1.weight"> : tensor<1280xf16>
  util.global private @__auto.down_blocks.2.attentions.0.transformer_blocks.2.norm1.bias = #stream.parameter.named<"model"::"down_blocks.2.attentions.0.transformer_blocks.2.norm1.bias"> : tensor<1280xf16>
  util.global private @__auto.down_blocks.2.attentions.0.transformer_blocks.2.attn1.to_q.weight = #stream.parameter.named<"model"::"down_blocks.2.attentions.0.transformer_blocks.2.attn1.to_q.weight"> : tensor<1280x1280xf16>
  util.global private @__auto.down_blocks.2.attentions.0.transformer_blocks.2.attn1.to_k.weight = #stream.parameter.named<"model"::"down_blocks.2.attentions.0.transformer_blocks.2.attn1.to_k.weight"> : tensor<1280x1280xf16>
  util.global private @__auto.down_blocks.2.attentions.0.transformer_blocks.2.attn1.to_v.weight = #stream.parameter.named<"model"::"down_blocks.2.attentions.0.transformer_blocks.2.attn1.to_v.weight"> : tensor<1280x1280xf16>
  util.global private @__auto.down_blocks.2.attentions.0.transformer_blocks.2.attn1.to_out.0.weight = #stream.parameter.named<"model"::"down_blocks.2.attentions.0.transformer_blocks.2.attn1.to_out.0.weight"> : tensor<1280x1280xf16>
  util.global private @__auto.down_blocks.2.attentions.0.transformer_blocks.2.attn1.to_out.0.bias = #stream.parameter.named<"model"::"down_blocks.2.attentions.0.transformer_blocks.2.attn1.to_out.0.bias"> : tensor<1280xf16>
  util.global private @__auto.down_blocks.2.attentions.0.transformer_blocks.2.norm2.weight = #stream.parameter.named<"model"::"down_blocks.2.attentions.0.transformer_blocks.2.norm2.weight"> : tensor<1280xf16>
  util.global private @__auto.down_blocks.2.attentions.0.transformer_blocks.2.norm2.bias = #stream.parameter.named<"model"::"down_blocks.2.attentions.0.transformer_blocks.2.norm2.bias"> : tensor<1280xf16>
  util.global private @__auto.down_blocks.2.attentions.0.transformer_blocks.2.attn2.to_q.weight = #stream.parameter.named<"model"::"down_blocks.2.attentions.0.transformer_blocks.2.attn2.to_q.weight"> : tensor<1280x1280xf16>
  util.global private @__auto.down_blocks.2.attentions.0.transformer_blocks.2.attn2.to_k.weight = #stream.parameter.named<"model"::"down_blocks.2.attentions.0.transformer_blocks.2.attn2.to_k.weight"> : tensor<1280x2048xf16>
  util.global private @__auto.down_blocks.2.attentions.0.transformer_blocks.2.attn2.to_v.weight = #stream.parameter.named<"model"::"down_blocks.2.attentions.0.transformer_blocks.2.attn2.to_v.weight"> : tensor<1280x2048xf16>
  util.global private @__auto.down_blocks.2.attentions.0.transformer_blocks.2.attn2.to_out.0.weight = #stream.parameter.named<"model"::"down_blocks.2.attentions.0.transformer_blocks.2.attn2.to_out.0.weight"> : tensor<1280x1280xf16>
  util.global private @__auto.down_blocks.2.attentions.0.transformer_blocks.2.attn2.to_out.0.bias = #stream.parameter.named<"model"::"down_blocks.2.attentions.0.transformer_blocks.2.attn2.to_out.0.bias"> : tensor<1280xf16>
  util.global private @__auto.down_blocks.2.attentions.0.transformer_blocks.2.norm3.weight = #stream.parameter.named<"model"::"down_blocks.2.attentions.0.transformer_blocks.2.norm3.weight"> : tensor<1280xf16>
  util.global private @__auto.down_blocks.2.attentions.0.transformer_blocks.2.norm3.bias = #stream.parameter.named<"model"::"down_blocks.2.attentions.0.transformer_blocks.2.norm3.bias"> : tensor<1280xf16>
  util.global private @__auto.down_blocks.2.attentions.0.transformer_blocks.2.ff.net.0.proj.weight = #stream.parameter.named<"model"::"down_blocks.2.attentions.0.transformer_blocks.2.ff.net.0.proj.weight"> : tensor<10240x1280xf16>
  util.global private @__auto.down_blocks.2.attentions.0.transformer_blocks.2.ff.net.0.proj.bias = #stream.parameter.named<"model"::"down_blocks.2.attentions.0.transformer_blocks.2.ff.net.0.proj.bias"> : tensor<10240xf16>
  util.global private @__auto.down_blocks.2.attentions.0.transformer_blocks.2.ff.net.2.weight = #stream.parameter.named<"model"::"down_blocks.2.attentions.0.transformer_blocks.2.ff.net.2.weight"> : tensor<1280x5120xf16>
  util.global private @__auto.down_blocks.2.attentions.0.transformer_blocks.2.ff.net.2.bias = #stream.parameter.named<"model"::"down_blocks.2.attentions.0.transformer_blocks.2.ff.net.2.bias"> : tensor<1280xf16>
  util.global private @__auto.down_blocks.2.attentions.0.transformer_blocks.3.norm1.weight = #stream.parameter.named<"model"::"down_blocks.2.attentions.0.transformer_blocks.3.norm1.weight"> : tensor<1280xf16>
  util.global private @__auto.down_blocks.2.attentions.0.transformer_blocks.3.norm1.bias = #stream.parameter.named<"model"::"down_blocks.2.attentions.0.transformer_blocks.3.norm1.bias"> : tensor<1280xf16>
  util.global private @__auto.down_blocks.2.attentions.0.transformer_blocks.3.attn1.to_q.weight = #stream.parameter.named<"model"::"down_blocks.2.attentions.0.transformer_blocks.3.attn1.to_q.weight"> : tensor<1280x1280xf16>
  util.global private @__auto.down_blocks.2.attentions.0.transformer_blocks.3.attn1.to_k.weight = #stream.parameter.named<"model"::"down_blocks.2.attentions.0.transformer_blocks.3.attn1.to_k.weight"> : tensor<1280x1280xf16>
  util.global private @__auto.down_blocks.2.attentions.0.transformer_blocks.3.attn1.to_v.weight = #stream.parameter.named<"model"::"down_blocks.2.attentions.0.transformer_blocks.3.attn1.to_v.weight"> : tensor<1280x1280xf16>
  util.global private @__auto.down_blocks.2.attentions.0.transformer_blocks.3.attn1.to_out.0.weight = #stream.parameter.named<"model"::"down_blocks.2.attentions.0.transformer_blocks.3.attn1.to_out.0.weight"> : tensor<1280x1280xf16>
  util.global private @__auto.down_blocks.2.attentions.0.transformer_blocks.3.attn1.to_out.0.bias = #stream.parameter.named<"model"::"down_blocks.2.attentions.0.transformer_blocks.3.attn1.to_out.0.bias"> : tensor<1280xf16>
  util.global private @__auto.down_blocks.2.attentions.0.transformer_blocks.3.norm2.weight = #stream.parameter.named<"model"::"down_blocks.2.attentions.0.transformer_blocks.3.norm2.weight"> : tensor<1280xf16>
  util.global private @__auto.down_blocks.2.attentions.0.transformer_blocks.3.norm2.bias = #stream.parameter.named<"model"::"down_blocks.2.attentions.0.transformer_blocks.3.norm2.bias"> : tensor<1280xf16>
  util.global private @__auto.down_blocks.2.attentions.0.transformer_blocks.3.attn2.to_q.weight = #stream.parameter.named<"model"::"down_blocks.2.attentions.0.transformer_blocks.3.attn2.to_q.weight"> : tensor<1280x1280xf16>
  util.global private @__auto.down_blocks.2.attentions.0.transformer_blocks.3.attn2.to_k.weight = #stream.parameter.named<"model"::"down_blocks.2.attentions.0.transformer_blocks.3.attn2.to_k.weight"> : tensor<1280x2048xf16>
  util.global private @__auto.down_blocks.2.attentions.0.transformer_blocks.3.attn2.to_v.weight = #stream.parameter.named<"model"::"down_blocks.2.attentions.0.transformer_blocks.3.attn2.to_v.weight"> : tensor<1280x2048xf16>
  util.global private @__auto.down_blocks.2.attentions.0.transformer_blocks.3.attn2.to_out.0.weight = #stream.parameter.named<"model"::"down_blocks.2.attentions.0.transformer_blocks.3.attn2.to_out.0.weight"> : tensor<1280x1280xf16>
  util.global private @__auto.down_blocks.2.attentions.0.transformer_blocks.3.attn2.to_out.0.bias = #stream.parameter.named<"model"::"down_blocks.2.attentions.0.transformer_blocks.3.attn2.to_out.0.bias"> : tensor<1280xf16>
  util.global private @__auto.down_blocks.2.attentions.0.transformer_blocks.3.norm3.weight = #stream.parameter.named<"model"::"down_blocks.2.attentions.0.transformer_blocks.3.norm3.weight"> : tensor<1280xf16>
  util.global private @__auto.down_blocks.2.attentions.0.transformer_blocks.3.norm3.bias = #stream.parameter.named<"model"::"down_blocks.2.attentions.0.transformer_blocks.3.norm3.bias"> : tensor<1280xf16>
  util.global private @__auto.down_blocks.2.attentions.0.transformer_blocks.3.ff.net.0.proj.weight = #stream.parameter.named<"model"::"down_blocks.2.attentions.0.transformer_blocks.3.ff.net.0.proj.weight"> : tensor<10240x1280xf16>
  util.global private @__auto.down_blocks.2.attentions.0.transformer_blocks.3.ff.net.0.proj.bias = #stream.parameter.named<"model"::"down_blocks.2.attentions.0.transformer_blocks.3.ff.net.0.proj.bias"> : tensor<10240xf16>
  util.global private @__auto.down_blocks.2.attentions.0.transformer_blocks.3.ff.net.2.weight = #stream.parameter.named<"model"::"down_blocks.2.attentions.0.transformer_blocks.3.ff.net.2.weight"> : tensor<1280x5120xf16>
  util.global private @__auto.down_blocks.2.attentions.0.transformer_blocks.3.ff.net.2.bias = #stream.parameter.named<"model"::"down_blocks.2.attentions.0.transformer_blocks.3.ff.net.2.bias"> : tensor<1280xf16>
  util.global private @__auto.down_blocks.2.attentions.0.transformer_blocks.4.norm1.weight = #stream.parameter.named<"model"::"down_blocks.2.attentions.0.transformer_blocks.4.norm1.weight"> : tensor<1280xf16>
  util.global private @__auto.down_blocks.2.attentions.0.transformer_blocks.4.norm1.bias = #stream.parameter.named<"model"::"down_blocks.2.attentions.0.transformer_blocks.4.norm1.bias"> : tensor<1280xf16>
  util.global private @__auto.down_blocks.2.attentions.0.transformer_blocks.4.attn1.to_q.weight = #stream.parameter.named<"model"::"down_blocks.2.attentions.0.transformer_blocks.4.attn1.to_q.weight"> : tensor<1280x1280xf16>
  util.global private @__auto.down_blocks.2.attentions.0.transformer_blocks.4.attn1.to_k.weight = #stream.parameter.named<"model"::"down_blocks.2.attentions.0.transformer_blocks.4.attn1.to_k.weight"> : tensor<1280x1280xf16>
  util.global private @__auto.down_blocks.2.attentions.0.transformer_blocks.4.attn1.to_v.weight = #stream.parameter.named<"model"::"down_blocks.2.attentions.0.transformer_blocks.4.attn1.to_v.weight"> : tensor<1280x1280xf16>
  util.global private @__auto.down_blocks.2.attentions.0.transformer_blocks.4.attn1.to_out.0.weight = #stream.parameter.named<"model"::"down_blocks.2.attentions.0.transformer_blocks.4.attn1.to_out.0.weight"> : tensor<1280x1280xf16>
  util.global private @__auto.down_blocks.2.attentions.0.transformer_blocks.4.attn1.to_out.0.bias = #stream.parameter.named<"model"::"down_blocks.2.attentions.0.transformer_blocks.4.attn1.to_out.0.bias"> : tensor<1280xf16>
  util.global private @__auto.down_blocks.2.attentions.0.transformer_blocks.4.norm2.weight = #stream.parameter.named<"model"::"down_blocks.2.attentions.0.transformer_blocks.4.norm2.weight"> : tensor<1280xf16>
  util.global private @__auto.down_blocks.2.attentions.0.transformer_blocks.4.norm2.bias = #stream.parameter.named<"model"::"down_blocks.2.attentions.0.transformer_blocks.4.norm2.bias"> : tensor<1280xf16>
  util.global private @__auto.down_blocks.2.attentions.0.transformer_blocks.4.attn2.to_q.weight = #stream.parameter.named<"model"::"down_blocks.2.attentions.0.transformer_blocks.4.attn2.to_q.weight"> : tensor<1280x1280xf16>
  util.global private @__auto.down_blocks.2.attentions.0.transformer_blocks.4.attn2.to_k.weight = #stream.parameter.named<"model"::"down_blocks.2.attentions.0.transformer_blocks.4.attn2.to_k.weight"> : tensor<1280x2048xf16>
  util.global private @__auto.down_blocks.2.attentions.0.transformer_blocks.4.attn2.to_v.weight = #stream.parameter.named<"model"::"down_blocks.2.attentions.0.transformer_blocks.4.attn2.to_v.weight"> : tensor<1280x2048xf16>
  util.global private @__auto.down_blocks.2.attentions.0.transformer_blocks.4.attn2.to_out.0.weight = #stream.parameter.named<"model"::"down_blocks.2.attentions.0.transformer_blocks.4.attn2.to_out.0.weight"> : tensor<1280x1280xf16>
  util.global private @__auto.down_blocks.2.attentions.0.transformer_blocks.4.attn2.to_out.0.bias = #stream.parameter.named<"model"::"down_blocks.2.attentions.0.transformer_blocks.4.attn2.to_out.0.bias"> : tensor<1280xf16>
  util.global private @__auto.down_blocks.2.attentions.0.transformer_blocks.4.norm3.weight = #stream.parameter.named<"model"::"down_blocks.2.attentions.0.transformer_blocks.4.norm3.weight"> : tensor<1280xf16>
  util.global private @__auto.down_blocks.2.attentions.0.transformer_blocks.4.norm3.bias = #stream.parameter.named<"model"::"down_blocks.2.attentions.0.transformer_blocks.4.norm3.bias"> : tensor<1280xf16>
  util.global private @__auto.down_blocks.2.attentions.0.transformer_blocks.4.ff.net.0.proj.weight = #stream.parameter.named<"model"::"down_blocks.2.attentions.0.transformer_blocks.4.ff.net.0.proj.weight"> : tensor<10240x1280xf16>
  util.global private @__auto.down_blocks.2.attentions.0.transformer_blocks.4.ff.net.0.proj.bias = #stream.parameter.named<"model"::"down_blocks.2.attentions.0.transformer_blocks.4.ff.net.0.proj.bias"> : tensor<10240xf16>
  util.global private @__auto.down_blocks.2.attentions.0.transformer_blocks.4.ff.net.2.weight = #stream.parameter.named<"model"::"down_blocks.2.attentions.0.transformer_blocks.4.ff.net.2.weight"> : tensor<1280x5120xf16>
  util.global private @__auto.down_blocks.2.attentions.0.transformer_blocks.4.ff.net.2.bias = #stream.parameter.named<"model"::"down_blocks.2.attentions.0.transformer_blocks.4.ff.net.2.bias"> : tensor<1280xf16>
  util.global private @__auto.down_blocks.2.attentions.0.transformer_blocks.5.norm1.weight = #stream.parameter.named<"model"::"down_blocks.2.attentions.0.transformer_blocks.5.norm1.weight"> : tensor<1280xf16>
  util.global private @__auto.down_blocks.2.attentions.0.transformer_blocks.5.norm1.bias = #stream.parameter.named<"model"::"down_blocks.2.attentions.0.transformer_blocks.5.norm1.bias"> : tensor<1280xf16>
  util.global private @__auto.down_blocks.2.attentions.0.transformer_blocks.5.attn1.to_q.weight = #stream.parameter.named<"model"::"down_blocks.2.attentions.0.transformer_blocks.5.attn1.to_q.weight"> : tensor<1280x1280xf16>
  util.global private @__auto.down_blocks.2.attentions.0.transformer_blocks.5.attn1.to_k.weight = #stream.parameter.named<"model"::"down_blocks.2.attentions.0.transformer_blocks.5.attn1.to_k.weight"> : tensor<1280x1280xf16>
  util.global private @__auto.down_blocks.2.attentions.0.transformer_blocks.5.attn1.to_v.weight = #stream.parameter.named<"model"::"down_blocks.2.attentions.0.transformer_blocks.5.attn1.to_v.weight"> : tensor<1280x1280xf16>
  util.global private @__auto.down_blocks.2.attentions.0.transformer_blocks.5.attn1.to_out.0.weight = #stream.parameter.named<"model"::"down_blocks.2.attentions.0.transformer_blocks.5.attn1.to_out.0.weight"> : tensor<1280x1280xf16>
  util.global private @__auto.down_blocks.2.attentions.0.transformer_blocks.5.attn1.to_out.0.bias = #stream.parameter.named<"model"::"down_blocks.2.attentions.0.transformer_blocks.5.attn1.to_out.0.bias"> : tensor<1280xf16>
  util.global private @__auto.down_blocks.2.attentions.0.transformer_blocks.5.norm2.weight = #stream.parameter.named<"model"::"down_blocks.2.attentions.0.transformer_blocks.5.norm2.weight"> : tensor<1280xf16>
  util.global private @__auto.down_blocks.2.attentions.0.transformer_blocks.5.norm2.bias = #stream.parameter.named<"model"::"down_blocks.2.attentions.0.transformer_blocks.5.norm2.bias"> : tensor<1280xf16>
  util.global private @__auto.down_blocks.2.attentions.0.transformer_blocks.5.attn2.to_q.weight = #stream.parameter.named<"model"::"down_blocks.2.attentions.0.transformer_blocks.5.attn2.to_q.weight"> : tensor<1280x1280xf16>
  util.global private @__auto.down_blocks.2.attentions.0.transformer_blocks.5.attn2.to_k.weight = #stream.parameter.named<"model"::"down_blocks.2.attentions.0.transformer_blocks.5.attn2.to_k.weight"> : tensor<1280x2048xf16>
  util.global private @__auto.down_blocks.2.attentions.0.transformer_blocks.5.attn2.to_v.weight = #stream.parameter.named<"model"::"down_blocks.2.attentions.0.transformer_blocks.5.attn2.to_v.weight"> : tensor<1280x2048xf16>
  util.global private @__auto.down_blocks.2.attentions.0.transformer_blocks.5.attn2.to_out.0.weight = #stream.parameter.named<"model"::"down_blocks.2.attentions.0.transformer_blocks.5.attn2.to_out.0.weight"> : tensor<1280x1280xf16>
  util.global private @__auto.down_blocks.2.attentions.0.transformer_blocks.5.attn2.to_out.0.bias = #stream.parameter.named<"model"::"down_blocks.2.attentions.0.transformer_blocks.5.attn2.to_out.0.bias"> : tensor<1280xf16>
  util.global private @__auto.down_blocks.2.attentions.0.transformer_blocks.5.norm3.weight = #stream.parameter.named<"model"::"down_blocks.2.attentions.0.transformer_blocks.5.norm3.weight"> : tensor<1280xf16>
  util.global private @__auto.down_blocks.2.attentions.0.transformer_blocks.5.norm3.bias = #stream.parameter.named<"model"::"down_blocks.2.attentions.0.transformer_blocks.5.norm3.bias"> : tensor<1280xf16>
  util.global private @__auto.down_blocks.2.attentions.0.transformer_blocks.5.ff.net.0.proj.weight = #stream.parameter.named<"model"::"down_blocks.2.attentions.0.transformer_blocks.5.ff.net.0.proj.weight"> : tensor<10240x1280xf16>
  util.global private @__auto.down_blocks.2.attentions.0.transformer_blocks.5.ff.net.0.proj.bias = #stream.parameter.named<"model"::"down_blocks.2.attentions.0.transformer_blocks.5.ff.net.0.proj.bias"> : tensor<10240xf16>
  util.global private @__auto.down_blocks.2.attentions.0.transformer_blocks.5.ff.net.2.weight = #stream.parameter.named<"model"::"down_blocks.2.attentions.0.transformer_blocks.5.ff.net.2.weight"> : tensor<1280x5120xf16>
  util.global private @__auto.down_blocks.2.attentions.0.transformer_blocks.5.ff.net.2.bias = #stream.parameter.named<"model"::"down_blocks.2.attentions.0.transformer_blocks.5.ff.net.2.bias"> : tensor<1280xf16>
  util.global private @__auto.down_blocks.2.attentions.0.transformer_blocks.6.norm1.weight = #stream.parameter.named<"model"::"down_blocks.2.attentions.0.transformer_blocks.6.norm1.weight"> : tensor<1280xf16>
  util.global private @__auto.down_blocks.2.attentions.0.transformer_blocks.6.norm1.bias = #stream.parameter.named<"model"::"down_blocks.2.attentions.0.transformer_blocks.6.norm1.bias"> : tensor<1280xf16>
  util.global private @__auto.down_blocks.2.attentions.0.transformer_blocks.6.attn1.to_q.weight = #stream.parameter.named<"model"::"down_blocks.2.attentions.0.transformer_blocks.6.attn1.to_q.weight"> : tensor<1280x1280xf16>
  util.global private @__auto.down_blocks.2.attentions.0.transformer_blocks.6.attn1.to_k.weight = #stream.parameter.named<"model"::"down_blocks.2.attentions.0.transformer_blocks.6.attn1.to_k.weight"> : tensor<1280x1280xf16>
  util.global private @__auto.down_blocks.2.attentions.0.transformer_blocks.6.attn1.to_v.weight = #stream.parameter.named<"model"::"down_blocks.2.attentions.0.transformer_blocks.6.attn1.to_v.weight"> : tensor<1280x1280xf16>
  util.global private @__auto.down_blocks.2.attentions.0.transformer_blocks.6.attn1.to_out.0.weight = #stream.parameter.named<"model"::"down_blocks.2.attentions.0.transformer_blocks.6.attn1.to_out.0.weight"> : tensor<1280x1280xf16>
  util.global private @__auto.down_blocks.2.attentions.0.transformer_blocks.6.attn1.to_out.0.bias = #stream.parameter.named<"model"::"down_blocks.2.attentions.0.transformer_blocks.6.attn1.to_out.0.bias"> : tensor<1280xf16>
  util.global private @__auto.down_blocks.2.attentions.0.transformer_blocks.6.norm2.weight = #stream.parameter.named<"model"::"down_blocks.2.attentions.0.transformer_blocks.6.norm2.weight"> : tensor<1280xf16>
  util.global private @__auto.down_blocks.2.attentions.0.transformer_blocks.6.norm2.bias = #stream.parameter.named<"model"::"down_blocks.2.attentions.0.transformer_blocks.6.norm2.bias"> : tensor<1280xf16>
  util.global private @__auto.down_blocks.2.attentions.0.transformer_blocks.6.attn2.to_q.weight = #stream.parameter.named<"model"::"down_blocks.2.attentions.0.transformer_blocks.6.attn2.to_q.weight"> : tensor<1280x1280xf16>
  util.global private @__auto.down_blocks.2.attentions.0.transformer_blocks.6.attn2.to_k.weight = #stream.parameter.named<"model"::"down_blocks.2.attentions.0.transformer_blocks.6.attn2.to_k.weight"> : tensor<1280x2048xf16>
  util.global private @__auto.down_blocks.2.attentions.0.transformer_blocks.6.attn2.to_v.weight = #stream.parameter.named<"model"::"down_blocks.2.attentions.0.transformer_blocks.6.attn2.to_v.weight"> : tensor<1280x2048xf16>
  util.global private @__auto.down_blocks.2.attentions.0.transformer_blocks.6.attn2.to_out.0.weight = #stream.parameter.named<"model"::"down_blocks.2.attentions.0.transformer_blocks.6.attn2.to_out.0.weight"> : tensor<1280x1280xf16>
  util.global private @__auto.down_blocks.2.attentions.0.transformer_blocks.6.attn2.to_out.0.bias = #stream.parameter.named<"model"::"down_blocks.2.attentions.0.transformer_blocks.6.attn2.to_out.0.bias"> : tensor<1280xf16>
  util.global private @__auto.down_blocks.2.attentions.0.transformer_blocks.6.norm3.weight = #stream.parameter.named<"model"::"down_blocks.2.attentions.0.transformer_blocks.6.norm3.weight"> : tensor<1280xf16>
  util.global private @__auto.down_blocks.2.attentions.0.transformer_blocks.6.norm3.bias = #stream.parameter.named<"model"::"down_blocks.2.attentions.0.transformer_blocks.6.norm3.bias"> : tensor<1280xf16>
  util.global private @__auto.down_blocks.2.attentions.0.transformer_blocks.6.ff.net.0.proj.weight = #stream.parameter.named<"model"::"down_blocks.2.attentions.0.transformer_blocks.6.ff.net.0.proj.weight"> : tensor<10240x1280xf16>
  util.global private @__auto.down_blocks.2.attentions.0.transformer_blocks.6.ff.net.0.proj.bias = #stream.parameter.named<"model"::"down_blocks.2.attentions.0.transformer_blocks.6.ff.net.0.proj.bias"> : tensor<10240xf16>
  util.global private @__auto.down_blocks.2.attentions.0.transformer_blocks.6.ff.net.2.weight = #stream.parameter.named<"model"::"down_blocks.2.attentions.0.transformer_blocks.6.ff.net.2.weight"> : tensor<1280x5120xf16>
  util.global private @__auto.down_blocks.2.attentions.0.transformer_blocks.6.ff.net.2.bias = #stream.parameter.named<"model"::"down_blocks.2.attentions.0.transformer_blocks.6.ff.net.2.bias"> : tensor<1280xf16>
  util.global private @__auto.down_blocks.2.attentions.0.transformer_blocks.7.norm1.weight = #stream.parameter.named<"model"::"down_blocks.2.attentions.0.transformer_blocks.7.norm1.weight"> : tensor<1280xf16>
  util.global private @__auto.down_blocks.2.attentions.0.transformer_blocks.7.norm1.bias = #stream.parameter.named<"model"::"down_blocks.2.attentions.0.transformer_blocks.7.norm1.bias"> : tensor<1280xf16>
  util.global private @__auto.down_blocks.2.attentions.0.transformer_blocks.7.attn1.to_q.weight = #stream.parameter.named<"model"::"down_blocks.2.attentions.0.transformer_blocks.7.attn1.to_q.weight"> : tensor<1280x1280xf16>
  util.global private @__auto.down_blocks.2.attentions.0.transformer_blocks.7.attn1.to_k.weight = #stream.parameter.named<"model"::"down_blocks.2.attentions.0.transformer_blocks.7.attn1.to_k.weight"> : tensor<1280x1280xf16>
  util.global private @__auto.down_blocks.2.attentions.0.transformer_blocks.7.attn1.to_v.weight = #stream.parameter.named<"model"::"down_blocks.2.attentions.0.transformer_blocks.7.attn1.to_v.weight"> : tensor<1280x1280xf16>
  util.global private @__auto.down_blocks.2.attentions.0.transformer_blocks.7.attn1.to_out.0.weight = #stream.parameter.named<"model"::"down_blocks.2.attentions.0.transformer_blocks.7.attn1.to_out.0.weight"> : tensor<1280x1280xf16>
  util.global private @__auto.down_blocks.2.attentions.0.transformer_blocks.7.attn1.to_out.0.bias = #stream.parameter.named<"model"::"down_blocks.2.attentions.0.transformer_blocks.7.attn1.to_out.0.bias"> : tensor<1280xf16>
  util.global private @__auto.down_blocks.2.attentions.0.transformer_blocks.7.norm2.weight = #stream.parameter.named<"model"::"down_blocks.2.attentions.0.transformer_blocks.7.norm2.weight"> : tensor<1280xf16>
  util.global private @__auto.down_blocks.2.attentions.0.transformer_blocks.7.norm2.bias = #stream.parameter.named<"model"::"down_blocks.2.attentions.0.transformer_blocks.7.norm2.bias"> : tensor<1280xf16>
  util.global private @__auto.down_blocks.2.attentions.0.transformer_blocks.7.attn2.to_q.weight = #stream.parameter.named<"model"::"down_blocks.2.attentions.0.transformer_blocks.7.attn2.to_q.weight"> : tensor<1280x1280xf16>
  util.global private @__auto.down_blocks.2.attentions.0.transformer_blocks.7.attn2.to_k.weight = #stream.parameter.named<"model"::"down_blocks.2.attentions.0.transformer_blocks.7.attn2.to_k.weight"> : tensor<1280x2048xf16>
  util.global private @__auto.down_blocks.2.attentions.0.transformer_blocks.7.attn2.to_v.weight = #stream.parameter.named<"model"::"down_blocks.2.attentions.0.transformer_blocks.7.attn2.to_v.weight"> : tensor<1280x2048xf16>
  util.global private @__auto.down_blocks.2.attentions.0.transformer_blocks.7.attn2.to_out.0.weight = #stream.parameter.named<"model"::"down_blocks.2.attentions.0.transformer_blocks.7.attn2.to_out.0.weight"> : tensor<1280x1280xf16>
  util.global private @__auto.down_blocks.2.attentions.0.transformer_blocks.7.attn2.to_out.0.bias = #stream.parameter.named<"model"::"down_blocks.2.attentions.0.transformer_blocks.7.attn2.to_out.0.bias"> : tensor<1280xf16>
  util.global private @__auto.down_blocks.2.attentions.0.transformer_blocks.7.norm3.weight = #stream.parameter.named<"model"::"down_blocks.2.attentions.0.transformer_blocks.7.norm3.weight"> : tensor<1280xf16>
  util.global private @__auto.down_blocks.2.attentions.0.transformer_blocks.7.norm3.bias = #stream.parameter.named<"model"::"down_blocks.2.attentions.0.transformer_blocks.7.norm3.bias"> : tensor<1280xf16>
  util.global private @__auto.down_blocks.2.attentions.0.transformer_blocks.7.ff.net.0.proj.weight = #stream.parameter.named<"model"::"down_blocks.2.attentions.0.transformer_blocks.7.ff.net.0.proj.weight"> : tensor<10240x1280xf16>
  util.global private @__auto.down_blocks.2.attentions.0.transformer_blocks.7.ff.net.0.proj.bias = #stream.parameter.named<"model"::"down_blocks.2.attentions.0.transformer_blocks.7.ff.net.0.proj.bias"> : tensor<10240xf16>
  util.global private @__auto.down_blocks.2.attentions.0.transformer_blocks.7.ff.net.2.weight = #stream.parameter.named<"model"::"down_blocks.2.attentions.0.transformer_blocks.7.ff.net.2.weight"> : tensor<1280x5120xf16>
  util.global private @__auto.down_blocks.2.attentions.0.transformer_blocks.7.ff.net.2.bias = #stream.parameter.named<"model"::"down_blocks.2.attentions.0.transformer_blocks.7.ff.net.2.bias"> : tensor<1280xf16>
  util.global private @__auto.down_blocks.2.attentions.0.transformer_blocks.8.norm1.weight = #stream.parameter.named<"model"::"down_blocks.2.attentions.0.transformer_blocks.8.norm1.weight"> : tensor<1280xf16>
  util.global private @__auto.down_blocks.2.attentions.0.transformer_blocks.8.norm1.bias = #stream.parameter.named<"model"::"down_blocks.2.attentions.0.transformer_blocks.8.norm1.bias"> : tensor<1280xf16>
  util.global private @__auto.down_blocks.2.attentions.0.transformer_blocks.8.attn1.to_q.weight = #stream.parameter.named<"model"::"down_blocks.2.attentions.0.transformer_blocks.8.attn1.to_q.weight"> : tensor<1280x1280xf16>
  util.global private @__auto.down_blocks.2.attentions.0.transformer_blocks.8.attn1.to_k.weight = #stream.parameter.named<"model"::"down_blocks.2.attentions.0.transformer_blocks.8.attn1.to_k.weight"> : tensor<1280x1280xf16>
  util.global private @__auto.down_blocks.2.attentions.0.transformer_blocks.8.attn1.to_v.weight = #stream.parameter.named<"model"::"down_blocks.2.attentions.0.transformer_blocks.8.attn1.to_v.weight"> : tensor<1280x1280xf16>
  util.global private @__auto.down_blocks.2.attentions.0.transformer_blocks.8.attn1.to_out.0.weight = #stream.parameter.named<"model"::"down_blocks.2.attentions.0.transformer_blocks.8.attn1.to_out.0.weight"> : tensor<1280x1280xf16>
  util.global private @__auto.down_blocks.2.attentions.0.transformer_blocks.8.attn1.to_out.0.bias = #stream.parameter.named<"model"::"down_blocks.2.attentions.0.transformer_blocks.8.attn1.to_out.0.bias"> : tensor<1280xf16>
  util.global private @__auto.down_blocks.2.attentions.0.transformer_blocks.8.norm2.weight = #stream.parameter.named<"model"::"down_blocks.2.attentions.0.transformer_blocks.8.norm2.weight"> : tensor<1280xf16>
  util.global private @__auto.down_blocks.2.attentions.0.transformer_blocks.8.norm2.bias = #stream.parameter.named<"model"::"down_blocks.2.attentions.0.transformer_blocks.8.norm2.bias"> : tensor<1280xf16>
  util.global private @__auto.down_blocks.2.attentions.0.transformer_blocks.8.attn2.to_q.weight = #stream.parameter.named<"model"::"down_blocks.2.attentions.0.transformer_blocks.8.attn2.to_q.weight"> : tensor<1280x1280xf16>
  util.global private @__auto.down_blocks.2.attentions.0.transformer_blocks.8.attn2.to_k.weight = #stream.parameter.named<"model"::"down_blocks.2.attentions.0.transformer_blocks.8.attn2.to_k.weight"> : tensor<1280x2048xf16>
  util.global private @__auto.down_blocks.2.attentions.0.transformer_blocks.8.attn2.to_v.weight = #stream.parameter.named<"model"::"down_blocks.2.attentions.0.transformer_blocks.8.attn2.to_v.weight"> : tensor<1280x2048xf16>
  util.global private @__auto.down_blocks.2.attentions.0.transformer_blocks.8.attn2.to_out.0.weight = #stream.parameter.named<"model"::"down_blocks.2.attentions.0.transformer_blocks.8.attn2.to_out.0.weight"> : tensor<1280x1280xf16>
  util.global private @__auto.down_blocks.2.attentions.0.transformer_blocks.8.attn2.to_out.0.bias = #stream.parameter.named<"model"::"down_blocks.2.attentions.0.transformer_blocks.8.attn2.to_out.0.bias"> : tensor<1280xf16>
  util.global private @__auto.down_blocks.2.attentions.0.transformer_blocks.8.norm3.weight = #stream.parameter.named<"model"::"down_blocks.2.attentions.0.transformer_blocks.8.norm3.weight"> : tensor<1280xf16>
  util.global private @__auto.down_blocks.2.attentions.0.transformer_blocks.8.norm3.bias = #stream.parameter.named<"model"::"down_blocks.2.attentions.0.transformer_blocks.8.norm3.bias"> : tensor<1280xf16>
  util.global private @__auto.down_blocks.2.attentions.0.transformer_blocks.8.ff.net.0.proj.weight = #stream.parameter.named<"model"::"down_blocks.2.attentions.0.transformer_blocks.8.ff.net.0.proj.weight"> : tensor<10240x1280xf16>
  util.global private @__auto.down_blocks.2.attentions.0.transformer_blocks.8.ff.net.0.proj.bias = #stream.parameter.named<"model"::"down_blocks.2.attentions.0.transformer_blocks.8.ff.net.0.proj.bias"> : tensor<10240xf16>
  util.global private @__auto.down_blocks.2.attentions.0.transformer_blocks.8.ff.net.2.weight = #stream.parameter.named<"model"::"down_blocks.2.attentions.0.transformer_blocks.8.ff.net.2.weight"> : tensor<1280x5120xf16>
  util.global private @__auto.down_blocks.2.attentions.0.transformer_blocks.8.ff.net.2.bias = #stream.parameter.named<"model"::"down_blocks.2.attentions.0.transformer_blocks.8.ff.net.2.bias"> : tensor<1280xf16>
  util.global private @__auto.down_blocks.2.attentions.0.transformer_blocks.9.norm1.weight = #stream.parameter.named<"model"::"down_blocks.2.attentions.0.transformer_blocks.9.norm1.weight"> : tensor<1280xf16>
  util.global private @__auto.down_blocks.2.attentions.0.transformer_blocks.9.norm1.bias = #stream.parameter.named<"model"::"down_blocks.2.attentions.0.transformer_blocks.9.norm1.bias"> : tensor<1280xf16>
  util.global private @__auto.down_blocks.2.attentions.0.transformer_blocks.9.attn1.to_q.weight = #stream.parameter.named<"model"::"down_blocks.2.attentions.0.transformer_blocks.9.attn1.to_q.weight"> : tensor<1280x1280xf16>
  util.global private @__auto.down_blocks.2.attentions.0.transformer_blocks.9.attn1.to_k.weight = #stream.parameter.named<"model"::"down_blocks.2.attentions.0.transformer_blocks.9.attn1.to_k.weight"> : tensor<1280x1280xf16>
  util.global private @__auto.down_blocks.2.attentions.0.transformer_blocks.9.attn1.to_v.weight = #stream.parameter.named<"model"::"down_blocks.2.attentions.0.transformer_blocks.9.attn1.to_v.weight"> : tensor<1280x1280xf16>
  util.global private @__auto.down_blocks.2.attentions.0.transformer_blocks.9.attn1.to_out.0.weight = #stream.parameter.named<"model"::"down_blocks.2.attentions.0.transformer_blocks.9.attn1.to_out.0.weight"> : tensor<1280x1280xf16>
  util.global private @__auto.down_blocks.2.attentions.0.transformer_blocks.9.attn1.to_out.0.bias = #stream.parameter.named<"model"::"down_blocks.2.attentions.0.transformer_blocks.9.attn1.to_out.0.bias"> : tensor<1280xf16>
  util.global private @__auto.down_blocks.2.attentions.0.transformer_blocks.9.norm2.weight = #stream.parameter.named<"model"::"down_blocks.2.attentions.0.transformer_blocks.9.norm2.weight"> : tensor<1280xf16>
  util.global private @__auto.down_blocks.2.attentions.0.transformer_blocks.9.norm2.bias = #stream.parameter.named<"model"::"down_blocks.2.attentions.0.transformer_blocks.9.norm2.bias"> : tensor<1280xf16>
  util.global private @__auto.down_blocks.2.attentions.0.transformer_blocks.9.attn2.to_q.weight = #stream.parameter.named<"model"::"down_blocks.2.attentions.0.transformer_blocks.9.attn2.to_q.weight"> : tensor<1280x1280xf16>
  util.global private @__auto.down_blocks.2.attentions.0.transformer_blocks.9.attn2.to_k.weight = #stream.parameter.named<"model"::"down_blocks.2.attentions.0.transformer_blocks.9.attn2.to_k.weight"> : tensor<1280x2048xf16>
  util.global private @__auto.down_blocks.2.attentions.0.transformer_blocks.9.attn2.to_v.weight = #stream.parameter.named<"model"::"down_blocks.2.attentions.0.transformer_blocks.9.attn2.to_v.weight"> : tensor<1280x2048xf16>
  util.global private @__auto.down_blocks.2.attentions.0.transformer_blocks.9.attn2.to_out.0.weight = #stream.parameter.named<"model"::"down_blocks.2.attentions.0.transformer_blocks.9.attn2.to_out.0.weight"> : tensor<1280x1280xf16>
  util.global private @__auto.down_blocks.2.attentions.0.transformer_blocks.9.attn2.to_out.0.bias = #stream.parameter.named<"model"::"down_blocks.2.attentions.0.transformer_blocks.9.attn2.to_out.0.bias"> : tensor<1280xf16>
  util.global private @__auto.down_blocks.2.attentions.0.transformer_blocks.9.norm3.weight = #stream.parameter.named<"model"::"down_blocks.2.attentions.0.transformer_blocks.9.norm3.weight"> : tensor<1280xf16>
  util.global private @__auto.down_blocks.2.attentions.0.transformer_blocks.9.norm3.bias = #stream.parameter.named<"model"::"down_blocks.2.attentions.0.transformer_blocks.9.norm3.bias"> : tensor<1280xf16>
  util.global private @__auto.down_blocks.2.attentions.0.transformer_blocks.9.ff.net.0.proj.weight = #stream.parameter.named<"model"::"down_blocks.2.attentions.0.transformer_blocks.9.ff.net.0.proj.weight"> : tensor<10240x1280xf16>
  util.global private @__auto.down_blocks.2.attentions.0.transformer_blocks.9.ff.net.0.proj.bias = #stream.parameter.named<"model"::"down_blocks.2.attentions.0.transformer_blocks.9.ff.net.0.proj.bias"> : tensor<10240xf16>
  util.global private @__auto.down_blocks.2.attentions.0.transformer_blocks.9.ff.net.2.weight = #stream.parameter.named<"model"::"down_blocks.2.attentions.0.transformer_blocks.9.ff.net.2.weight"> : tensor<1280x5120xf16>
  util.global private @__auto.down_blocks.2.attentions.0.transformer_blocks.9.ff.net.2.bias = #stream.parameter.named<"model"::"down_blocks.2.attentions.0.transformer_blocks.9.ff.net.2.bias"> : tensor<1280xf16>
  util.global private @__auto.down_blocks.2.attentions.0.proj_out.weight = #stream.parameter.named<"model"::"down_blocks.2.attentions.0.proj_out.weight"> : tensor<1280x1280xf16>
  util.global private @__auto.down_blocks.2.attentions.0.proj_out.bias = #stream.parameter.named<"model"::"down_blocks.2.attentions.0.proj_out.bias"> : tensor<1280xf16>
  util.global private @__auto.down_blocks.2.resnets.1.norm1.weight = #stream.parameter.named<"model"::"down_blocks.2.resnets.1.norm1.weight"> : tensor<1280xf16>
  util.global private @__auto.down_blocks.2.resnets.1.norm1.bias = #stream.parameter.named<"model"::"down_blocks.2.resnets.1.norm1.bias"> : tensor<1280xf16>
  util.global private @__auto.down_blocks.2.resnets.1.conv1.weight = #stream.parameter.named<"model"::"down_blocks.2.resnets.1.conv1.weight"> : tensor<1280x1280x3x3xf16>
  util.global private @__auto.down_blocks.2.resnets.1.conv1.bias = #stream.parameter.named<"model"::"down_blocks.2.resnets.1.conv1.bias"> : tensor<1280xf16>
  util.global private @__auto.down_blocks.2.resnets.1.time_emb_proj.weight = #stream.parameter.named<"model"::"down_blocks.2.resnets.1.time_emb_proj.weight"> : tensor<1280x1280xf16>
  util.global private @__auto.down_blocks.2.resnets.1.time_emb_proj.bias = #stream.parameter.named<"model"::"down_blocks.2.resnets.1.time_emb_proj.bias"> : tensor<1280xf16>
  util.global private @__auto.down_blocks.2.resnets.1.norm2.weight = #stream.parameter.named<"model"::"down_blocks.2.resnets.1.norm2.weight"> : tensor<1280xf16>
  util.global private @__auto.down_blocks.2.resnets.1.norm2.bias = #stream.parameter.named<"model"::"down_blocks.2.resnets.1.norm2.bias"> : tensor<1280xf16>
  util.global private @__auto.down_blocks.2.resnets.1.conv2.weight = #stream.parameter.named<"model"::"down_blocks.2.resnets.1.conv2.weight"> : tensor<1280x1280x3x3xf16>
  util.global private @__auto.down_blocks.2.resnets.1.conv2.bias = #stream.parameter.named<"model"::"down_blocks.2.resnets.1.conv2.bias"> : tensor<1280xf16>
  util.global private @__auto.down_blocks.2.attentions.1.norm.weight = #stream.parameter.named<"model"::"down_blocks.2.attentions.1.norm.weight"> : tensor<1280xf16>
  util.global private @__auto.down_blocks.2.attentions.1.norm.bias = #stream.parameter.named<"model"::"down_blocks.2.attentions.1.norm.bias"> : tensor<1280xf16>
  util.global private @__auto.down_blocks.2.attentions.1.proj_in.weight = #stream.parameter.named<"model"::"down_blocks.2.attentions.1.proj_in.weight"> : tensor<1280x1280xf16>
  util.global private @__auto.down_blocks.2.attentions.1.proj_in.bias = #stream.parameter.named<"model"::"down_blocks.2.attentions.1.proj_in.bias"> : tensor<1280xf16>
  util.global private @__auto.down_blocks.2.attentions.1.transformer_blocks.0.norm1.weight = #stream.parameter.named<"model"::"down_blocks.2.attentions.1.transformer_blocks.0.norm1.weight"> : tensor<1280xf16>
  util.global private @__auto.down_blocks.2.attentions.1.transformer_blocks.0.norm1.bias = #stream.parameter.named<"model"::"down_blocks.2.attentions.1.transformer_blocks.0.norm1.bias"> : tensor<1280xf16>
  util.global private @__auto.down_blocks.2.attentions.1.transformer_blocks.0.attn1.to_q.weight = #stream.parameter.named<"model"::"down_blocks.2.attentions.1.transformer_blocks.0.attn1.to_q.weight"> : tensor<1280x1280xf16>
  util.global private @__auto.down_blocks.2.attentions.1.transformer_blocks.0.attn1.to_k.weight = #stream.parameter.named<"model"::"down_blocks.2.attentions.1.transformer_blocks.0.attn1.to_k.weight"> : tensor<1280x1280xf16>
  util.global private @__auto.down_blocks.2.attentions.1.transformer_blocks.0.attn1.to_v.weight = #stream.parameter.named<"model"::"down_blocks.2.attentions.1.transformer_blocks.0.attn1.to_v.weight"> : tensor<1280x1280xf16>
  util.global private @__auto.down_blocks.2.attentions.1.transformer_blocks.0.attn1.to_out.0.weight = #stream.parameter.named<"model"::"down_blocks.2.attentions.1.transformer_blocks.0.attn1.to_out.0.weight"> : tensor<1280x1280xf16>
  util.global private @__auto.down_blocks.2.attentions.1.transformer_blocks.0.attn1.to_out.0.bias = #stream.parameter.named<"model"::"down_blocks.2.attentions.1.transformer_blocks.0.attn1.to_out.0.bias"> : tensor<1280xf16>
  util.global private @__auto.down_blocks.2.attentions.1.transformer_blocks.0.norm2.weight = #stream.parameter.named<"model"::"down_blocks.2.attentions.1.transformer_blocks.0.norm2.weight"> : tensor<1280xf16>
  util.global private @__auto.down_blocks.2.attentions.1.transformer_blocks.0.norm2.bias = #stream.parameter.named<"model"::"down_blocks.2.attentions.1.transformer_blocks.0.norm2.bias"> : tensor<1280xf16>
  util.global private @__auto.down_blocks.2.attentions.1.transformer_blocks.0.attn2.to_q.weight = #stream.parameter.named<"model"::"down_blocks.2.attentions.1.transformer_blocks.0.attn2.to_q.weight"> : tensor<1280x1280xf16>
  util.global private @__auto.down_blocks.2.attentions.1.transformer_blocks.0.attn2.to_k.weight = #stream.parameter.named<"model"::"down_blocks.2.attentions.1.transformer_blocks.0.attn2.to_k.weight"> : tensor<1280x2048xf16>
  util.global private @__auto.down_blocks.2.attentions.1.transformer_blocks.0.attn2.to_v.weight = #stream.parameter.named<"model"::"down_blocks.2.attentions.1.transformer_blocks.0.attn2.to_v.weight"> : tensor<1280x2048xf16>
  util.global private @__auto.down_blocks.2.attentions.1.transformer_blocks.0.attn2.to_out.0.weight = #stream.parameter.named<"model"::"down_blocks.2.attentions.1.transformer_blocks.0.attn2.to_out.0.weight"> : tensor<1280x1280xf16>
  util.global private @__auto.down_blocks.2.attentions.1.transformer_blocks.0.attn2.to_out.0.bias = #stream.parameter.named<"model"::"down_blocks.2.attentions.1.transformer_blocks.0.attn2.to_out.0.bias"> : tensor<1280xf16>
  util.global private @__auto.down_blocks.2.attentions.1.transformer_blocks.0.norm3.weight = #stream.parameter.named<"model"::"down_blocks.2.attentions.1.transformer_blocks.0.norm3.weight"> : tensor<1280xf16>
  util.global private @__auto.down_blocks.2.attentions.1.transformer_blocks.0.norm3.bias = #stream.parameter.named<"model"::"down_blocks.2.attentions.1.transformer_blocks.0.norm3.bias"> : tensor<1280xf16>
  util.global private @__auto.down_blocks.2.attentions.1.transformer_blocks.0.ff.net.0.proj.weight = #stream.parameter.named<"model"::"down_blocks.2.attentions.1.transformer_blocks.0.ff.net.0.proj.weight"> : tensor<10240x1280xf16>
  util.global private @__auto.down_blocks.2.attentions.1.transformer_blocks.0.ff.net.0.proj.bias = #stream.parameter.named<"model"::"down_blocks.2.attentions.1.transformer_blocks.0.ff.net.0.proj.bias"> : tensor<10240xf16>
  util.global private @__auto.down_blocks.2.attentions.1.transformer_blocks.0.ff.net.2.weight = #stream.parameter.named<"model"::"down_blocks.2.attentions.1.transformer_blocks.0.ff.net.2.weight"> : tensor<1280x5120xf16>
  util.global private @__auto.down_blocks.2.attentions.1.transformer_blocks.0.ff.net.2.bias = #stream.parameter.named<"model"::"down_blocks.2.attentions.1.transformer_blocks.0.ff.net.2.bias"> : tensor<1280xf16>
  util.global private @__auto.down_blocks.2.attentions.1.transformer_blocks.1.norm1.weight = #stream.parameter.named<"model"::"down_blocks.2.attentions.1.transformer_blocks.1.norm1.weight"> : tensor<1280xf16>
  util.global private @__auto.down_blocks.2.attentions.1.transformer_blocks.1.norm1.bias = #stream.parameter.named<"model"::"down_blocks.2.attentions.1.transformer_blocks.1.norm1.bias"> : tensor<1280xf16>
  util.global private @__auto.down_blocks.2.attentions.1.transformer_blocks.1.attn1.to_q.weight = #stream.parameter.named<"model"::"down_blocks.2.attentions.1.transformer_blocks.1.attn1.to_q.weight"> : tensor<1280x1280xf16>
  util.global private @__auto.down_blocks.2.attentions.1.transformer_blocks.1.attn1.to_k.weight = #stream.parameter.named<"model"::"down_blocks.2.attentions.1.transformer_blocks.1.attn1.to_k.weight"> : tensor<1280x1280xf16>
  util.global private @__auto.down_blocks.2.attentions.1.transformer_blocks.1.attn1.to_v.weight = #stream.parameter.named<"model"::"down_blocks.2.attentions.1.transformer_blocks.1.attn1.to_v.weight"> : tensor<1280x1280xf16>
  util.global private @__auto.down_blocks.2.attentions.1.transformer_blocks.1.attn1.to_out.0.weight = #stream.parameter.named<"model"::"down_blocks.2.attentions.1.transformer_blocks.1.attn1.to_out.0.weight"> : tensor<1280x1280xf16>
  util.global private @__auto.down_blocks.2.attentions.1.transformer_blocks.1.attn1.to_out.0.bias = #stream.parameter.named<"model"::"down_blocks.2.attentions.1.transformer_blocks.1.attn1.to_out.0.bias"> : tensor<1280xf16>
  util.global private @__auto.down_blocks.2.attentions.1.transformer_blocks.1.norm2.weight = #stream.parameter.named<"model"::"down_blocks.2.attentions.1.transformer_blocks.1.norm2.weight"> : tensor<1280xf16>
  util.global private @__auto.down_blocks.2.attentions.1.transformer_blocks.1.norm2.bias = #stream.parameter.named<"model"::"down_blocks.2.attentions.1.transformer_blocks.1.norm2.bias"> : tensor<1280xf16>
  util.global private @__auto.down_blocks.2.attentions.1.transformer_blocks.1.attn2.to_q.weight = #stream.parameter.named<"model"::"down_blocks.2.attentions.1.transformer_blocks.1.attn2.to_q.weight"> : tensor<1280x1280xf16>
  util.global private @__auto.down_blocks.2.attentions.1.transformer_blocks.1.attn2.to_k.weight = #stream.parameter.named<"model"::"down_blocks.2.attentions.1.transformer_blocks.1.attn2.to_k.weight"> : tensor<1280x2048xf16>
  util.global private @__auto.down_blocks.2.attentions.1.transformer_blocks.1.attn2.to_v.weight = #stream.parameter.named<"model"::"down_blocks.2.attentions.1.transformer_blocks.1.attn2.to_v.weight"> : tensor<1280x2048xf16>
  util.global private @__auto.down_blocks.2.attentions.1.transformer_blocks.1.attn2.to_out.0.weight = #stream.parameter.named<"model"::"down_blocks.2.attentions.1.transformer_blocks.1.attn2.to_out.0.weight"> : tensor<1280x1280xf16>
  util.global private @__auto.down_blocks.2.attentions.1.transformer_blocks.1.attn2.to_out.0.bias = #stream.parameter.named<"model"::"down_blocks.2.attentions.1.transformer_blocks.1.attn2.to_out.0.bias"> : tensor<1280xf16>
  util.global private @__auto.down_blocks.2.attentions.1.transformer_blocks.1.norm3.weight = #stream.parameter.named<"model"::"down_blocks.2.attentions.1.transformer_blocks.1.norm3.weight"> : tensor<1280xf16>
  util.global private @__auto.down_blocks.2.attentions.1.transformer_blocks.1.norm3.bias = #stream.parameter.named<"model"::"down_blocks.2.attentions.1.transformer_blocks.1.norm3.bias"> : tensor<1280xf16>
  util.global private @__auto.down_blocks.2.attentions.1.transformer_blocks.1.ff.net.0.proj.weight = #stream.parameter.named<"model"::"down_blocks.2.attentions.1.transformer_blocks.1.ff.net.0.proj.weight"> : tensor<10240x1280xf16>
  util.global private @__auto.down_blocks.2.attentions.1.transformer_blocks.1.ff.net.0.proj.bias = #stream.parameter.named<"model"::"down_blocks.2.attentions.1.transformer_blocks.1.ff.net.0.proj.bias"> : tensor<10240xf16>
  util.global private @__auto.down_blocks.2.attentions.1.transformer_blocks.1.ff.net.2.weight = #stream.parameter.named<"model"::"down_blocks.2.attentions.1.transformer_blocks.1.ff.net.2.weight"> : tensor<1280x5120xf16>
  util.global private @__auto.down_blocks.2.attentions.1.transformer_blocks.1.ff.net.2.bias = #stream.parameter.named<"model"::"down_blocks.2.attentions.1.transformer_blocks.1.ff.net.2.bias"> : tensor<1280xf16>
  util.global private @__auto.down_blocks.2.attentions.1.transformer_blocks.2.norm1.weight = #stream.parameter.named<"model"::"down_blocks.2.attentions.1.transformer_blocks.2.norm1.weight"> : tensor<1280xf16>
  util.global private @__auto.down_blocks.2.attentions.1.transformer_blocks.2.norm1.bias = #stream.parameter.named<"model"::"down_blocks.2.attentions.1.transformer_blocks.2.norm1.bias"> : tensor<1280xf16>
  util.global private @__auto.down_blocks.2.attentions.1.transformer_blocks.2.attn1.to_q.weight = #stream.parameter.named<"model"::"down_blocks.2.attentions.1.transformer_blocks.2.attn1.to_q.weight"> : tensor<1280x1280xf16>
  util.global private @__auto.down_blocks.2.attentions.1.transformer_blocks.2.attn1.to_k.weight = #stream.parameter.named<"model"::"down_blocks.2.attentions.1.transformer_blocks.2.attn1.to_k.weight"> : tensor<1280x1280xf16>
  util.global private @__auto.down_blocks.2.attentions.1.transformer_blocks.2.attn1.to_v.weight = #stream.parameter.named<"model"::"down_blocks.2.attentions.1.transformer_blocks.2.attn1.to_v.weight"> : tensor<1280x1280xf16>
  util.global private @__auto.down_blocks.2.attentions.1.transformer_blocks.2.attn1.to_out.0.weight = #stream.parameter.named<"model"::"down_blocks.2.attentions.1.transformer_blocks.2.attn1.to_out.0.weight"> : tensor<1280x1280xf16>
  util.global private @__auto.down_blocks.2.attentions.1.transformer_blocks.2.attn1.to_out.0.bias = #stream.parameter.named<"model"::"down_blocks.2.attentions.1.transformer_blocks.2.attn1.to_out.0.bias"> : tensor<1280xf16>
  util.global private @__auto.down_blocks.2.attentions.1.transformer_blocks.2.norm2.weight = #stream.parameter.named<"model"::"down_blocks.2.attentions.1.transformer_blocks.2.norm2.weight"> : tensor<1280xf16>
  util.global private @__auto.down_blocks.2.attentions.1.transformer_blocks.2.norm2.bias = #stream.parameter.named<"model"::"down_blocks.2.attentions.1.transformer_blocks.2.norm2.bias"> : tensor<1280xf16>
  util.global private @__auto.down_blocks.2.attentions.1.transformer_blocks.2.attn2.to_q.weight = #stream.parameter.named<"model"::"down_blocks.2.attentions.1.transformer_blocks.2.attn2.to_q.weight"> : tensor<1280x1280xf16>
  util.global private @__auto.down_blocks.2.attentions.1.transformer_blocks.2.attn2.to_k.weight = #stream.parameter.named<"model"::"down_blocks.2.attentions.1.transformer_blocks.2.attn2.to_k.weight"> : tensor<1280x2048xf16>
  util.global private @__auto.down_blocks.2.attentions.1.transformer_blocks.2.attn2.to_v.weight = #stream.parameter.named<"model"::"down_blocks.2.attentions.1.transformer_blocks.2.attn2.to_v.weight"> : tensor<1280x2048xf16>
  util.global private @__auto.down_blocks.2.attentions.1.transformer_blocks.2.attn2.to_out.0.weight = #stream.parameter.named<"model"::"down_blocks.2.attentions.1.transformer_blocks.2.attn2.to_out.0.weight"> : tensor<1280x1280xf16>
  util.global private @__auto.down_blocks.2.attentions.1.transformer_blocks.2.attn2.to_out.0.bias = #stream.parameter.named<"model"::"down_blocks.2.attentions.1.transformer_blocks.2.attn2.to_out.0.bias"> : tensor<1280xf16>
  util.global private @__auto.down_blocks.2.attentions.1.transformer_blocks.2.norm3.weight = #stream.parameter.named<"model"::"down_blocks.2.attentions.1.transformer_blocks.2.norm3.weight"> : tensor<1280xf16>
  util.global private @__auto.down_blocks.2.attentions.1.transformer_blocks.2.norm3.bias = #stream.parameter.named<"model"::"down_blocks.2.attentions.1.transformer_blocks.2.norm3.bias"> : tensor<1280xf16>
  util.global private @__auto.down_blocks.2.attentions.1.transformer_blocks.2.ff.net.0.proj.weight = #stream.parameter.named<"model"::"down_blocks.2.attentions.1.transformer_blocks.2.ff.net.0.proj.weight"> : tensor<10240x1280xf16>
  util.global private @__auto.down_blocks.2.attentions.1.transformer_blocks.2.ff.net.0.proj.bias = #stream.parameter.named<"model"::"down_blocks.2.attentions.1.transformer_blocks.2.ff.net.0.proj.bias"> : tensor<10240xf16>
  util.global private @__auto.down_blocks.2.attentions.1.transformer_blocks.2.ff.net.2.weight = #stream.parameter.named<"model"::"down_blocks.2.attentions.1.transformer_blocks.2.ff.net.2.weight"> : tensor<1280x5120xf16>
  util.global private @__auto.down_blocks.2.attentions.1.transformer_blocks.2.ff.net.2.bias = #stream.parameter.named<"model"::"down_blocks.2.attentions.1.transformer_blocks.2.ff.net.2.bias"> : tensor<1280xf16>
  util.global private @__auto.down_blocks.2.attentions.1.transformer_blocks.3.norm1.weight = #stream.parameter.named<"model"::"down_blocks.2.attentions.1.transformer_blocks.3.norm1.weight"> : tensor<1280xf16>
  util.global private @__auto.down_blocks.2.attentions.1.transformer_blocks.3.norm1.bias = #stream.parameter.named<"model"::"down_blocks.2.attentions.1.transformer_blocks.3.norm1.bias"> : tensor<1280xf16>
  util.global private @__auto.down_blocks.2.attentions.1.transformer_blocks.3.attn1.to_q.weight = #stream.parameter.named<"model"::"down_blocks.2.attentions.1.transformer_blocks.3.attn1.to_q.weight"> : tensor<1280x1280xf16>
  util.global private @__auto.down_blocks.2.attentions.1.transformer_blocks.3.attn1.to_k.weight = #stream.parameter.named<"model"::"down_blocks.2.attentions.1.transformer_blocks.3.attn1.to_k.weight"> : tensor<1280x1280xf16>
  util.global private @__auto.down_blocks.2.attentions.1.transformer_blocks.3.attn1.to_v.weight = #stream.parameter.named<"model"::"down_blocks.2.attentions.1.transformer_blocks.3.attn1.to_v.weight"> : tensor<1280x1280xf16>
  util.global private @__auto.down_blocks.2.attentions.1.transformer_blocks.3.attn1.to_out.0.weight = #stream.parameter.named<"model"::"down_blocks.2.attentions.1.transformer_blocks.3.attn1.to_out.0.weight"> : tensor<1280x1280xf16>
  util.global private @__auto.down_blocks.2.attentions.1.transformer_blocks.3.attn1.to_out.0.bias = #stream.parameter.named<"model"::"down_blocks.2.attentions.1.transformer_blocks.3.attn1.to_out.0.bias"> : tensor<1280xf16>
  util.global private @__auto.down_blocks.2.attentions.1.transformer_blocks.3.norm2.weight = #stream.parameter.named<"model"::"down_blocks.2.attentions.1.transformer_blocks.3.norm2.weight"> : tensor<1280xf16>
  util.global private @__auto.down_blocks.2.attentions.1.transformer_blocks.3.norm2.bias = #stream.parameter.named<"model"::"down_blocks.2.attentions.1.transformer_blocks.3.norm2.bias"> : tensor<1280xf16>
  util.global private @__auto.down_blocks.2.attentions.1.transformer_blocks.3.attn2.to_q.weight = #stream.parameter.named<"model"::"down_blocks.2.attentions.1.transformer_blocks.3.attn2.to_q.weight"> : tensor<1280x1280xf16>
  util.global private @__auto.down_blocks.2.attentions.1.transformer_blocks.3.attn2.to_k.weight = #stream.parameter.named<"model"::"down_blocks.2.attentions.1.transformer_blocks.3.attn2.to_k.weight"> : tensor<1280x2048xf16>
  util.global private @__auto.down_blocks.2.attentions.1.transformer_blocks.3.attn2.to_v.weight = #stream.parameter.named<"model"::"down_blocks.2.attentions.1.transformer_blocks.3.attn2.to_v.weight"> : tensor<1280x2048xf16>
  util.global private @__auto.down_blocks.2.attentions.1.transformer_blocks.3.attn2.to_out.0.weight = #stream.parameter.named<"model"::"down_blocks.2.attentions.1.transformer_blocks.3.attn2.to_out.0.weight"> : tensor<1280x1280xf16>
  util.global private @__auto.down_blocks.2.attentions.1.transformer_blocks.3.attn2.to_out.0.bias = #stream.parameter.named<"model"::"down_blocks.2.attentions.1.transformer_blocks.3.attn2.to_out.0.bias"> : tensor<1280xf16>
  util.global private @__auto.down_blocks.2.attentions.1.transformer_blocks.3.norm3.weight = #stream.parameter.named<"model"::"down_blocks.2.attentions.1.transformer_blocks.3.norm3.weight"> : tensor<1280xf16>
  util.global private @__auto.down_blocks.2.attentions.1.transformer_blocks.3.norm3.bias = #stream.parameter.named<"model"::"down_blocks.2.attentions.1.transformer_blocks.3.norm3.bias"> : tensor<1280xf16>
  util.global private @__auto.down_blocks.2.attentions.1.transformer_blocks.3.ff.net.0.proj.weight = #stream.parameter.named<"model"::"down_blocks.2.attentions.1.transformer_blocks.3.ff.net.0.proj.weight"> : tensor<10240x1280xf16>
  util.global private @__auto.down_blocks.2.attentions.1.transformer_blocks.3.ff.net.0.proj.bias = #stream.parameter.named<"model"::"down_blocks.2.attentions.1.transformer_blocks.3.ff.net.0.proj.bias"> : tensor<10240xf16>
  util.global private @__auto.down_blocks.2.attentions.1.transformer_blocks.3.ff.net.2.weight = #stream.parameter.named<"model"::"down_blocks.2.attentions.1.transformer_blocks.3.ff.net.2.weight"> : tensor<1280x5120xf16>
  util.global private @__auto.down_blocks.2.attentions.1.transformer_blocks.3.ff.net.2.bias = #stream.parameter.named<"model"::"down_blocks.2.attentions.1.transformer_blocks.3.ff.net.2.bias"> : tensor<1280xf16>
  util.global private @__auto.down_blocks.2.attentions.1.transformer_blocks.4.norm1.weight = #stream.parameter.named<"model"::"down_blocks.2.attentions.1.transformer_blocks.4.norm1.weight"> : tensor<1280xf16>
  util.global private @__auto.down_blocks.2.attentions.1.transformer_blocks.4.norm1.bias = #stream.parameter.named<"model"::"down_blocks.2.attentions.1.transformer_blocks.4.norm1.bias"> : tensor<1280xf16>
  util.global private @__auto.down_blocks.2.attentions.1.transformer_blocks.4.attn1.to_q.weight = #stream.parameter.named<"model"::"down_blocks.2.attentions.1.transformer_blocks.4.attn1.to_q.weight"> : tensor<1280x1280xf16>
  util.global private @__auto.down_blocks.2.attentions.1.transformer_blocks.4.attn1.to_k.weight = #stream.parameter.named<"model"::"down_blocks.2.attentions.1.transformer_blocks.4.attn1.to_k.weight"> : tensor<1280x1280xf16>
  util.global private @__auto.down_blocks.2.attentions.1.transformer_blocks.4.attn1.to_v.weight = #stream.parameter.named<"model"::"down_blocks.2.attentions.1.transformer_blocks.4.attn1.to_v.weight"> : tensor<1280x1280xf16>
  util.global private @__auto.down_blocks.2.attentions.1.transformer_blocks.4.attn1.to_out.0.weight = #stream.parameter.named<"model"::"down_blocks.2.attentions.1.transformer_blocks.4.attn1.to_out.0.weight"> : tensor<1280x1280xf16>
  util.global private @__auto.down_blocks.2.attentions.1.transformer_blocks.4.attn1.to_out.0.bias = #stream.parameter.named<"model"::"down_blocks.2.attentions.1.transformer_blocks.4.attn1.to_out.0.bias"> : tensor<1280xf16>
  util.global private @__auto.down_blocks.2.attentions.1.transformer_blocks.4.norm2.weight = #stream.parameter.named<"model"::"down_blocks.2.attentions.1.transformer_blocks.4.norm2.weight"> : tensor<1280xf16>
  util.global private @__auto.down_blocks.2.attentions.1.transformer_blocks.4.norm2.bias = #stream.parameter.named<"model"::"down_blocks.2.attentions.1.transformer_blocks.4.norm2.bias"> : tensor<1280xf16>
  util.global private @__auto.down_blocks.2.attentions.1.transformer_blocks.4.attn2.to_q.weight = #stream.parameter.named<"model"::"down_blocks.2.attentions.1.transformer_blocks.4.attn2.to_q.weight"> : tensor<1280x1280xf16>
  util.global private @__auto.down_blocks.2.attentions.1.transformer_blocks.4.attn2.to_k.weight = #stream.parameter.named<"model"::"down_blocks.2.attentions.1.transformer_blocks.4.attn2.to_k.weight"> : tensor<1280x2048xf16>
  util.global private @__auto.down_blocks.2.attentions.1.transformer_blocks.4.attn2.to_v.weight = #stream.parameter.named<"model"::"down_blocks.2.attentions.1.transformer_blocks.4.attn2.to_v.weight"> : tensor<1280x2048xf16>
  util.global private @__auto.down_blocks.2.attentions.1.transformer_blocks.4.attn2.to_out.0.weight = #stream.parameter.named<"model"::"down_blocks.2.attentions.1.transformer_blocks.4.attn2.to_out.0.weight"> : tensor<1280x1280xf16>
  util.global private @__auto.down_blocks.2.attentions.1.transformer_blocks.4.attn2.to_out.0.bias = #stream.parameter.named<"model"::"down_blocks.2.attentions.1.transformer_blocks.4.attn2.to_out.0.bias"> : tensor<1280xf16>
  util.global private @__auto.down_blocks.2.attentions.1.transformer_blocks.4.norm3.weight = #stream.parameter.named<"model"::"down_blocks.2.attentions.1.transformer_blocks.4.norm3.weight"> : tensor<1280xf16>
  util.global private @__auto.down_blocks.2.attentions.1.transformer_blocks.4.norm3.bias = #stream.parameter.named<"model"::"down_blocks.2.attentions.1.transformer_blocks.4.norm3.bias"> : tensor<1280xf16>
  util.global private @__auto.down_blocks.2.attentions.1.transformer_blocks.4.ff.net.0.proj.weight = #stream.parameter.named<"model"::"down_blocks.2.attentions.1.transformer_blocks.4.ff.net.0.proj.weight"> : tensor<10240x1280xf16>
  util.global private @__auto.down_blocks.2.attentions.1.transformer_blocks.4.ff.net.0.proj.bias = #stream.parameter.named<"model"::"down_blocks.2.attentions.1.transformer_blocks.4.ff.net.0.proj.bias"> : tensor<10240xf16>
  util.global private @__auto.down_blocks.2.attentions.1.transformer_blocks.4.ff.net.2.weight = #stream.parameter.named<"model"::"down_blocks.2.attentions.1.transformer_blocks.4.ff.net.2.weight"> : tensor<1280x5120xf16>
  util.global private @__auto.down_blocks.2.attentions.1.transformer_blocks.4.ff.net.2.bias = #stream.parameter.named<"model"::"down_blocks.2.attentions.1.transformer_blocks.4.ff.net.2.bias"> : tensor<1280xf16>
  util.global private @__auto.down_blocks.2.attentions.1.transformer_blocks.5.norm1.weight = #stream.parameter.named<"model"::"down_blocks.2.attentions.1.transformer_blocks.5.norm1.weight"> : tensor<1280xf16>
  util.global private @__auto.down_blocks.2.attentions.1.transformer_blocks.5.norm1.bias = #stream.parameter.named<"model"::"down_blocks.2.attentions.1.transformer_blocks.5.norm1.bias"> : tensor<1280xf16>
  util.global private @__auto.down_blocks.2.attentions.1.transformer_blocks.5.attn1.to_q.weight = #stream.parameter.named<"model"::"down_blocks.2.attentions.1.transformer_blocks.5.attn1.to_q.weight"> : tensor<1280x1280xf16>
  util.global private @__auto.down_blocks.2.attentions.1.transformer_blocks.5.attn1.to_k.weight = #stream.parameter.named<"model"::"down_blocks.2.attentions.1.transformer_blocks.5.attn1.to_k.weight"> : tensor<1280x1280xf16>
  util.global private @__auto.down_blocks.2.attentions.1.transformer_blocks.5.attn1.to_v.weight = #stream.parameter.named<"model"::"down_blocks.2.attentions.1.transformer_blocks.5.attn1.to_v.weight"> : tensor<1280x1280xf16>
  util.global private @__auto.down_blocks.2.attentions.1.transformer_blocks.5.attn1.to_out.0.weight = #stream.parameter.named<"model"::"down_blocks.2.attentions.1.transformer_blocks.5.attn1.to_out.0.weight"> : tensor<1280x1280xf16>
  util.global private @__auto.down_blocks.2.attentions.1.transformer_blocks.5.attn1.to_out.0.bias = #stream.parameter.named<"model"::"down_blocks.2.attentions.1.transformer_blocks.5.attn1.to_out.0.bias"> : tensor<1280xf16>
  util.global private @__auto.down_blocks.2.attentions.1.transformer_blocks.5.norm2.weight = #stream.parameter.named<"model"::"down_blocks.2.attentions.1.transformer_blocks.5.norm2.weight"> : tensor<1280xf16>
  util.global private @__auto.down_blocks.2.attentions.1.transformer_blocks.5.norm2.bias = #stream.parameter.named<"model"::"down_blocks.2.attentions.1.transformer_blocks.5.norm2.bias"> : tensor<1280xf16>
  util.global private @__auto.down_blocks.2.attentions.1.transformer_blocks.5.attn2.to_q.weight = #stream.parameter.named<"model"::"down_blocks.2.attentions.1.transformer_blocks.5.attn2.to_q.weight"> : tensor<1280x1280xf16>
  util.global private @__auto.down_blocks.2.attentions.1.transformer_blocks.5.attn2.to_k.weight = #stream.parameter.named<"model"::"down_blocks.2.attentions.1.transformer_blocks.5.attn2.to_k.weight"> : tensor<1280x2048xf16>
  util.global private @__auto.down_blocks.2.attentions.1.transformer_blocks.5.attn2.to_v.weight = #stream.parameter.named<"model"::"down_blocks.2.attentions.1.transformer_blocks.5.attn2.to_v.weight"> : tensor<1280x2048xf16>
  util.global private @__auto.down_blocks.2.attentions.1.transformer_blocks.5.attn2.to_out.0.weight = #stream.parameter.named<"model"::"down_blocks.2.attentions.1.transformer_blocks.5.attn2.to_out.0.weight"> : tensor<1280x1280xf16>
  util.global private @__auto.down_blocks.2.attentions.1.transformer_blocks.5.attn2.to_out.0.bias = #stream.parameter.named<"model"::"down_blocks.2.attentions.1.transformer_blocks.5.attn2.to_out.0.bias"> : tensor<1280xf16>
  util.global private @__auto.down_blocks.2.attentions.1.transformer_blocks.5.norm3.weight = #stream.parameter.named<"model"::"down_blocks.2.attentions.1.transformer_blocks.5.norm3.weight"> : tensor<1280xf16>
  util.global private @__auto.down_blocks.2.attentions.1.transformer_blocks.5.norm3.bias = #stream.parameter.named<"model"::"down_blocks.2.attentions.1.transformer_blocks.5.norm3.bias"> : tensor<1280xf16>
  util.global private @__auto.down_blocks.2.attentions.1.transformer_blocks.5.ff.net.0.proj.weight = #stream.parameter.named<"model"::"down_blocks.2.attentions.1.transformer_blocks.5.ff.net.0.proj.weight"> : tensor<10240x1280xf16>
  util.global private @__auto.down_blocks.2.attentions.1.transformer_blocks.5.ff.net.0.proj.bias = #stream.parameter.named<"model"::"down_blocks.2.attentions.1.transformer_blocks.5.ff.net.0.proj.bias"> : tensor<10240xf16>
  util.global private @__auto.down_blocks.2.attentions.1.transformer_blocks.5.ff.net.2.weight = #stream.parameter.named<"model"::"down_blocks.2.attentions.1.transformer_blocks.5.ff.net.2.weight"> : tensor<1280x5120xf16>
  util.global private @__auto.down_blocks.2.attentions.1.transformer_blocks.5.ff.net.2.bias = #stream.parameter.named<"model"::"down_blocks.2.attentions.1.transformer_blocks.5.ff.net.2.bias"> : tensor<1280xf16>
  util.global private @__auto.down_blocks.2.attentions.1.transformer_blocks.6.norm1.weight = #stream.parameter.named<"model"::"down_blocks.2.attentions.1.transformer_blocks.6.norm1.weight"> : tensor<1280xf16>
  util.global private @__auto.down_blocks.2.attentions.1.transformer_blocks.6.norm1.bias = #stream.parameter.named<"model"::"down_blocks.2.attentions.1.transformer_blocks.6.norm1.bias"> : tensor<1280xf16>
  util.global private @__auto.down_blocks.2.attentions.1.transformer_blocks.6.attn1.to_q.weight = #stream.parameter.named<"model"::"down_blocks.2.attentions.1.transformer_blocks.6.attn1.to_q.weight"> : tensor<1280x1280xf16>
  util.global private @__auto.down_blocks.2.attentions.1.transformer_blocks.6.attn1.to_k.weight = #stream.parameter.named<"model"::"down_blocks.2.attentions.1.transformer_blocks.6.attn1.to_k.weight"> : tensor<1280x1280xf16>
  util.global private @__auto.down_blocks.2.attentions.1.transformer_blocks.6.attn1.to_v.weight = #stream.parameter.named<"model"::"down_blocks.2.attentions.1.transformer_blocks.6.attn1.to_v.weight"> : tensor<1280x1280xf16>
  util.global private @__auto.down_blocks.2.attentions.1.transformer_blocks.6.attn1.to_out.0.weight = #stream.parameter.named<"model"::"down_blocks.2.attentions.1.transformer_blocks.6.attn1.to_out.0.weight"> : tensor<1280x1280xf16>
  util.global private @__auto.down_blocks.2.attentions.1.transformer_blocks.6.attn1.to_out.0.bias = #stream.parameter.named<"model"::"down_blocks.2.attentions.1.transformer_blocks.6.attn1.to_out.0.bias"> : tensor<1280xf16>
  util.global private @__auto.down_blocks.2.attentions.1.transformer_blocks.6.norm2.weight = #stream.parameter.named<"model"::"down_blocks.2.attentions.1.transformer_blocks.6.norm2.weight"> : tensor<1280xf16>
  util.global private @__auto.down_blocks.2.attentions.1.transformer_blocks.6.norm2.bias = #stream.parameter.named<"model"::"down_blocks.2.attentions.1.transformer_blocks.6.norm2.bias"> : tensor<1280xf16>
  util.global private @__auto.down_blocks.2.attentions.1.transformer_blocks.6.attn2.to_q.weight = #stream.parameter.named<"model"::"down_blocks.2.attentions.1.transformer_blocks.6.attn2.to_q.weight"> : tensor<1280x1280xf16>
  util.global private @__auto.down_blocks.2.attentions.1.transformer_blocks.6.attn2.to_k.weight = #stream.parameter.named<"model"::"down_blocks.2.attentions.1.transformer_blocks.6.attn2.to_k.weight"> : tensor<1280x2048xf16>
  util.global private @__auto.down_blocks.2.attentions.1.transformer_blocks.6.attn2.to_v.weight = #stream.parameter.named<"model"::"down_blocks.2.attentions.1.transformer_blocks.6.attn2.to_v.weight"> : tensor<1280x2048xf16>
  util.global private @__auto.down_blocks.2.attentions.1.transformer_blocks.6.attn2.to_out.0.weight = #stream.parameter.named<"model"::"down_blocks.2.attentions.1.transformer_blocks.6.attn2.to_out.0.weight"> : tensor<1280x1280xf16>
  util.global private @__auto.down_blocks.2.attentions.1.transformer_blocks.6.attn2.to_out.0.bias = #stream.parameter.named<"model"::"down_blocks.2.attentions.1.transformer_blocks.6.attn2.to_out.0.bias"> : tensor<1280xf16>
  util.global private @__auto.down_blocks.2.attentions.1.transformer_blocks.6.norm3.weight = #stream.parameter.named<"model"::"down_blocks.2.attentions.1.transformer_blocks.6.norm3.weight"> : tensor<1280xf16>
  util.global private @__auto.down_blocks.2.attentions.1.transformer_blocks.6.norm3.bias = #stream.parameter.named<"model"::"down_blocks.2.attentions.1.transformer_blocks.6.norm3.bias"> : tensor<1280xf16>
  util.global private @__auto.down_blocks.2.attentions.1.transformer_blocks.6.ff.net.0.proj.weight = #stream.parameter.named<"model"::"down_blocks.2.attentions.1.transformer_blocks.6.ff.net.0.proj.weight"> : tensor<10240x1280xf16>
  util.global private @__auto.down_blocks.2.attentions.1.transformer_blocks.6.ff.net.0.proj.bias = #stream.parameter.named<"model"::"down_blocks.2.attentions.1.transformer_blocks.6.ff.net.0.proj.bias"> : tensor<10240xf16>
  util.global private @__auto.down_blocks.2.attentions.1.transformer_blocks.6.ff.net.2.weight = #stream.parameter.named<"model"::"down_blocks.2.attentions.1.transformer_blocks.6.ff.net.2.weight"> : tensor<1280x5120xf16>
  util.global private @__auto.down_blocks.2.attentions.1.transformer_blocks.6.ff.net.2.bias = #stream.parameter.named<"model"::"down_blocks.2.attentions.1.transformer_blocks.6.ff.net.2.bias"> : tensor<1280xf16>
  util.global private @__auto.down_blocks.2.attentions.1.transformer_blocks.7.norm1.weight = #stream.parameter.named<"model"::"down_blocks.2.attentions.1.transformer_blocks.7.norm1.weight"> : tensor<1280xf16>
  util.global private @__auto.down_blocks.2.attentions.1.transformer_blocks.7.norm1.bias = #stream.parameter.named<"model"::"down_blocks.2.attentions.1.transformer_blocks.7.norm1.bias"> : tensor<1280xf16>
  util.global private @__auto.down_blocks.2.attentions.1.transformer_blocks.7.attn1.to_q.weight = #stream.parameter.named<"model"::"down_blocks.2.attentions.1.transformer_blocks.7.attn1.to_q.weight"> : tensor<1280x1280xf16>
  util.global private @__auto.down_blocks.2.attentions.1.transformer_blocks.7.attn1.to_k.weight = #stream.parameter.named<"model"::"down_blocks.2.attentions.1.transformer_blocks.7.attn1.to_k.weight"> : tensor<1280x1280xf16>
  util.global private @__auto.down_blocks.2.attentions.1.transformer_blocks.7.attn1.to_v.weight = #stream.parameter.named<"model"::"down_blocks.2.attentions.1.transformer_blocks.7.attn1.to_v.weight"> : tensor<1280x1280xf16>
  util.global private @__auto.down_blocks.2.attentions.1.transformer_blocks.7.attn1.to_out.0.weight = #stream.parameter.named<"model"::"down_blocks.2.attentions.1.transformer_blocks.7.attn1.to_out.0.weight"> : tensor<1280x1280xf16>
  util.global private @__auto.down_blocks.2.attentions.1.transformer_blocks.7.attn1.to_out.0.bias = #stream.parameter.named<"model"::"down_blocks.2.attentions.1.transformer_blocks.7.attn1.to_out.0.bias"> : tensor<1280xf16>
  util.global private @__auto.down_blocks.2.attentions.1.transformer_blocks.7.norm2.weight = #stream.parameter.named<"model"::"down_blocks.2.attentions.1.transformer_blocks.7.norm2.weight"> : tensor<1280xf16>
  util.global private @__auto.down_blocks.2.attentions.1.transformer_blocks.7.norm2.bias = #stream.parameter.named<"model"::"down_blocks.2.attentions.1.transformer_blocks.7.norm2.bias"> : tensor<1280xf16>
  util.global private @__auto.down_blocks.2.attentions.1.transformer_blocks.7.attn2.to_q.weight = #stream.parameter.named<"model"::"down_blocks.2.attentions.1.transformer_blocks.7.attn2.to_q.weight"> : tensor<1280x1280xf16>
  util.global private @__auto.down_blocks.2.attentions.1.transformer_blocks.7.attn2.to_k.weight = #stream.parameter.named<"model"::"down_blocks.2.attentions.1.transformer_blocks.7.attn2.to_k.weight"> : tensor<1280x2048xf16>
  util.global private @__auto.down_blocks.2.attentions.1.transformer_blocks.7.attn2.to_v.weight = #stream.parameter.named<"model"::"down_blocks.2.attentions.1.transformer_blocks.7.attn2.to_v.weight"> : tensor<1280x2048xf16>
  util.global private @__auto.down_blocks.2.attentions.1.transformer_blocks.7.attn2.to_out.0.weight = #stream.parameter.named<"model"::"down_blocks.2.attentions.1.transformer_blocks.7.attn2.to_out.0.weight"> : tensor<1280x1280xf16>
  util.global private @__auto.down_blocks.2.attentions.1.transformer_blocks.7.attn2.to_out.0.bias = #stream.parameter.named<"model"::"down_blocks.2.attentions.1.transformer_blocks.7.attn2.to_out.0.bias"> : tensor<1280xf16>
  util.global private @__auto.down_blocks.2.attentions.1.transformer_blocks.7.norm3.weight = #stream.parameter.named<"model"::"down_blocks.2.attentions.1.transformer_blocks.7.norm3.weight"> : tensor<1280xf16>
  util.global private @__auto.down_blocks.2.attentions.1.transformer_blocks.7.norm3.bias = #stream.parameter.named<"model"::"down_blocks.2.attentions.1.transformer_blocks.7.norm3.bias"> : tensor<1280xf16>
  util.global private @__auto.down_blocks.2.attentions.1.transformer_blocks.7.ff.net.0.proj.weight = #stream.parameter.named<"model"::"down_blocks.2.attentions.1.transformer_blocks.7.ff.net.0.proj.weight"> : tensor<10240x1280xf16>
  util.global private @__auto.down_blocks.2.attentions.1.transformer_blocks.7.ff.net.0.proj.bias = #stream.parameter.named<"model"::"down_blocks.2.attentions.1.transformer_blocks.7.ff.net.0.proj.bias"> : tensor<10240xf16>
  util.global private @__auto.down_blocks.2.attentions.1.transformer_blocks.7.ff.net.2.weight = #stream.parameter.named<"model"::"down_blocks.2.attentions.1.transformer_blocks.7.ff.net.2.weight"> : tensor<1280x5120xf16>
  util.global private @__auto.down_blocks.2.attentions.1.transformer_blocks.7.ff.net.2.bias = #stream.parameter.named<"model"::"down_blocks.2.attentions.1.transformer_blocks.7.ff.net.2.bias"> : tensor<1280xf16>
  util.global private @__auto.down_blocks.2.attentions.1.transformer_blocks.8.norm1.weight = #stream.parameter.named<"model"::"down_blocks.2.attentions.1.transformer_blocks.8.norm1.weight"> : tensor<1280xf16>
  util.global private @__auto.down_blocks.2.attentions.1.transformer_blocks.8.norm1.bias = #stream.parameter.named<"model"::"down_blocks.2.attentions.1.transformer_blocks.8.norm1.bias"> : tensor<1280xf16>
  util.global private @__auto.down_blocks.2.attentions.1.transformer_blocks.8.attn1.to_q.weight = #stream.parameter.named<"model"::"down_blocks.2.attentions.1.transformer_blocks.8.attn1.to_q.weight"> : tensor<1280x1280xf16>
  util.global private @__auto.down_blocks.2.attentions.1.transformer_blocks.8.attn1.to_k.weight = #stream.parameter.named<"model"::"down_blocks.2.attentions.1.transformer_blocks.8.attn1.to_k.weight"> : tensor<1280x1280xf16>
  util.global private @__auto.down_blocks.2.attentions.1.transformer_blocks.8.attn1.to_v.weight = #stream.parameter.named<"model"::"down_blocks.2.attentions.1.transformer_blocks.8.attn1.to_v.weight"> : tensor<1280x1280xf16>
  util.global private @__auto.down_blocks.2.attentions.1.transformer_blocks.8.attn1.to_out.0.weight = #stream.parameter.named<"model"::"down_blocks.2.attentions.1.transformer_blocks.8.attn1.to_out.0.weight"> : tensor<1280x1280xf16>
  util.global private @__auto.down_blocks.2.attentions.1.transformer_blocks.8.attn1.to_out.0.bias = #stream.parameter.named<"model"::"down_blocks.2.attentions.1.transformer_blocks.8.attn1.to_out.0.bias"> : tensor<1280xf16>
  util.global private @__auto.down_blocks.2.attentions.1.transformer_blocks.8.norm2.weight = #stream.parameter.named<"model"::"down_blocks.2.attentions.1.transformer_blocks.8.norm2.weight"> : tensor<1280xf16>
  util.global private @__auto.down_blocks.2.attentions.1.transformer_blocks.8.norm2.bias = #stream.parameter.named<"model"::"down_blocks.2.attentions.1.transformer_blocks.8.norm2.bias"> : tensor<1280xf16>
  util.global private @__auto.down_blocks.2.attentions.1.transformer_blocks.8.attn2.to_q.weight = #stream.parameter.named<"model"::"down_blocks.2.attentions.1.transformer_blocks.8.attn2.to_q.weight"> : tensor<1280x1280xf16>
  util.global private @__auto.down_blocks.2.attentions.1.transformer_blocks.8.attn2.to_k.weight = #stream.parameter.named<"model"::"down_blocks.2.attentions.1.transformer_blocks.8.attn2.to_k.weight"> : tensor<1280x2048xf16>
  util.global private @__auto.down_blocks.2.attentions.1.transformer_blocks.8.attn2.to_v.weight = #stream.parameter.named<"model"::"down_blocks.2.attentions.1.transformer_blocks.8.attn2.to_v.weight"> : tensor<1280x2048xf16>
  util.global private @__auto.down_blocks.2.attentions.1.transformer_blocks.8.attn2.to_out.0.weight = #stream.parameter.named<"model"::"down_blocks.2.attentions.1.transformer_blocks.8.attn2.to_out.0.weight"> : tensor<1280x1280xf16>
  util.global private @__auto.down_blocks.2.attentions.1.transformer_blocks.8.attn2.to_out.0.bias = #stream.parameter.named<"model"::"down_blocks.2.attentions.1.transformer_blocks.8.attn2.to_out.0.bias"> : tensor<1280xf16>
  util.global private @__auto.down_blocks.2.attentions.1.transformer_blocks.8.norm3.weight = #stream.parameter.named<"model"::"down_blocks.2.attentions.1.transformer_blocks.8.norm3.weight"> : tensor<1280xf16>
  util.global private @__auto.down_blocks.2.attentions.1.transformer_blocks.8.norm3.bias = #stream.parameter.named<"model"::"down_blocks.2.attentions.1.transformer_blocks.8.norm3.bias"> : tensor<1280xf16>
  util.global private @__auto.down_blocks.2.attentions.1.transformer_blocks.8.ff.net.0.proj.weight = #stream.parameter.named<"model"::"down_blocks.2.attentions.1.transformer_blocks.8.ff.net.0.proj.weight"> : tensor<10240x1280xf16>
  util.global private @__auto.down_blocks.2.attentions.1.transformer_blocks.8.ff.net.0.proj.bias = #stream.parameter.named<"model"::"down_blocks.2.attentions.1.transformer_blocks.8.ff.net.0.proj.bias"> : tensor<10240xf16>
  util.global private @__auto.down_blocks.2.attentions.1.transformer_blocks.8.ff.net.2.weight = #stream.parameter.named<"model"::"down_blocks.2.attentions.1.transformer_blocks.8.ff.net.2.weight"> : tensor<1280x5120xf16>
  util.global private @__auto.down_blocks.2.attentions.1.transformer_blocks.8.ff.net.2.bias = #stream.parameter.named<"model"::"down_blocks.2.attentions.1.transformer_blocks.8.ff.net.2.bias"> : tensor<1280xf16>
  util.global private @__auto.down_blocks.2.attentions.1.transformer_blocks.9.norm1.weight = #stream.parameter.named<"model"::"down_blocks.2.attentions.1.transformer_blocks.9.norm1.weight"> : tensor<1280xf16>
  util.global private @__auto.down_blocks.2.attentions.1.transformer_blocks.9.norm1.bias = #stream.parameter.named<"model"::"down_blocks.2.attentions.1.transformer_blocks.9.norm1.bias"> : tensor<1280xf16>
  util.global private @__auto.down_blocks.2.attentions.1.transformer_blocks.9.attn1.to_q.weight = #stream.parameter.named<"model"::"down_blocks.2.attentions.1.transformer_blocks.9.attn1.to_q.weight"> : tensor<1280x1280xf16>
  util.global private @__auto.down_blocks.2.attentions.1.transformer_blocks.9.attn1.to_k.weight = #stream.parameter.named<"model"::"down_blocks.2.attentions.1.transformer_blocks.9.attn1.to_k.weight"> : tensor<1280x1280xf16>
  util.global private @__auto.down_blocks.2.attentions.1.transformer_blocks.9.attn1.to_v.weight = #stream.parameter.named<"model"::"down_blocks.2.attentions.1.transformer_blocks.9.attn1.to_v.weight"> : tensor<1280x1280xf16>
  util.global private @__auto.down_blocks.2.attentions.1.transformer_blocks.9.attn1.to_out.0.weight = #stream.parameter.named<"model"::"down_blocks.2.attentions.1.transformer_blocks.9.attn1.to_out.0.weight"> : tensor<1280x1280xf16>
  util.global private @__auto.down_blocks.2.attentions.1.transformer_blocks.9.attn1.to_out.0.bias = #stream.parameter.named<"model"::"down_blocks.2.attentions.1.transformer_blocks.9.attn1.to_out.0.bias"> : tensor<1280xf16>
  util.global private @__auto.down_blocks.2.attentions.1.transformer_blocks.9.norm2.weight = #stream.parameter.named<"model"::"down_blocks.2.attentions.1.transformer_blocks.9.norm2.weight"> : tensor<1280xf16>
  util.global private @__auto.down_blocks.2.attentions.1.transformer_blocks.9.norm2.bias = #stream.parameter.named<"model"::"down_blocks.2.attentions.1.transformer_blocks.9.norm2.bias"> : tensor<1280xf16>
  util.global private @__auto.down_blocks.2.attentions.1.transformer_blocks.9.attn2.to_q.weight = #stream.parameter.named<"model"::"down_blocks.2.attentions.1.transformer_blocks.9.attn2.to_q.weight"> : tensor<1280x1280xf16>
  util.global private @__auto.down_blocks.2.attentions.1.transformer_blocks.9.attn2.to_k.weight = #stream.parameter.named<"model"::"down_blocks.2.attentions.1.transformer_blocks.9.attn2.to_k.weight"> : tensor<1280x2048xf16>
  util.global private @__auto.down_blocks.2.attentions.1.transformer_blocks.9.attn2.to_v.weight = #stream.parameter.named<"model"::"down_blocks.2.attentions.1.transformer_blocks.9.attn2.to_v.weight"> : tensor<1280x2048xf16>
  util.global private @__auto.down_blocks.2.attentions.1.transformer_blocks.9.attn2.to_out.0.weight = #stream.parameter.named<"model"::"down_blocks.2.attentions.1.transformer_blocks.9.attn2.to_out.0.weight"> : tensor<1280x1280xf16>
  util.global private @__auto.down_blocks.2.attentions.1.transformer_blocks.9.attn2.to_out.0.bias = #stream.parameter.named<"model"::"down_blocks.2.attentions.1.transformer_blocks.9.attn2.to_out.0.bias"> : tensor<1280xf16>
  util.global private @__auto.down_blocks.2.attentions.1.transformer_blocks.9.norm3.weight = #stream.parameter.named<"model"::"down_blocks.2.attentions.1.transformer_blocks.9.norm3.weight"> : tensor<1280xf16>
  util.global private @__auto.down_blocks.2.attentions.1.transformer_blocks.9.norm3.bias = #stream.parameter.named<"model"::"down_blocks.2.attentions.1.transformer_blocks.9.norm3.bias"> : tensor<1280xf16>
  util.global private @__auto.down_blocks.2.attentions.1.transformer_blocks.9.ff.net.0.proj.weight = #stream.parameter.named<"model"::"down_blocks.2.attentions.1.transformer_blocks.9.ff.net.0.proj.weight"> : tensor<10240x1280xf16>
  util.global private @__auto.down_blocks.2.attentions.1.transformer_blocks.9.ff.net.0.proj.bias = #stream.parameter.named<"model"::"down_blocks.2.attentions.1.transformer_blocks.9.ff.net.0.proj.bias"> : tensor<10240xf16>
  util.global private @__auto.down_blocks.2.attentions.1.transformer_blocks.9.ff.net.2.weight = #stream.parameter.named<"model"::"down_blocks.2.attentions.1.transformer_blocks.9.ff.net.2.weight"> : tensor<1280x5120xf16>
  util.global private @__auto.down_blocks.2.attentions.1.transformer_blocks.9.ff.net.2.bias = #stream.parameter.named<"model"::"down_blocks.2.attentions.1.transformer_blocks.9.ff.net.2.bias"> : tensor<1280xf16>
  util.global private @__auto.down_blocks.2.attentions.1.proj_out.weight = #stream.parameter.named<"model"::"down_blocks.2.attentions.1.proj_out.weight"> : tensor<1280x1280xf16>
  util.global private @__auto.down_blocks.2.attentions.1.proj_out.bias = #stream.parameter.named<"model"::"down_blocks.2.attentions.1.proj_out.bias"> : tensor<1280xf16>
  util.global private @__auto.mid_block.resnets.0.norm1.weight = #stream.parameter.named<"model"::"mid_block.resnets.0.norm1.weight"> : tensor<1280xf16>
  util.global private @__auto.mid_block.resnets.0.norm1.bias = #stream.parameter.named<"model"::"mid_block.resnets.0.norm1.bias"> : tensor<1280xf16>
  util.global private @__auto.mid_block.resnets.0.conv1.weight = #stream.parameter.named<"model"::"mid_block.resnets.0.conv1.weight"> : tensor<1280x1280x3x3xf16>
  util.global private @__auto.mid_block.resnets.0.conv1.bias = #stream.parameter.named<"model"::"mid_block.resnets.0.conv1.bias"> : tensor<1280xf16>
  util.global private @__auto.mid_block.resnets.0.time_emb_proj.weight = #stream.parameter.named<"model"::"mid_block.resnets.0.time_emb_proj.weight"> : tensor<1280x1280xf16>
  util.global private @__auto.mid_block.resnets.0.time_emb_proj.bias = #stream.parameter.named<"model"::"mid_block.resnets.0.time_emb_proj.bias"> : tensor<1280xf16>
  util.global private @__auto.mid_block.resnets.0.norm2.weight = #stream.parameter.named<"model"::"mid_block.resnets.0.norm2.weight"> : tensor<1280xf16>
  util.global private @__auto.mid_block.resnets.0.norm2.bias = #stream.parameter.named<"model"::"mid_block.resnets.0.norm2.bias"> : tensor<1280xf16>
  util.global private @__auto.mid_block.resnets.0.conv2.weight = #stream.parameter.named<"model"::"mid_block.resnets.0.conv2.weight"> : tensor<1280x1280x3x3xf16>
  util.global private @__auto.mid_block.resnets.0.conv2.bias = #stream.parameter.named<"model"::"mid_block.resnets.0.conv2.bias"> : tensor<1280xf16>
  util.global private @__auto.mid_block.attentions.0.norm.weight = #stream.parameter.named<"model"::"mid_block.attentions.0.norm.weight"> : tensor<1280xf16>
  util.global private @__auto.mid_block.attentions.0.norm.bias = #stream.parameter.named<"model"::"mid_block.attentions.0.norm.bias"> : tensor<1280xf16>
  util.global private @__auto.mid_block.attentions.0.proj_in.weight = #stream.parameter.named<"model"::"mid_block.attentions.0.proj_in.weight"> : tensor<1280x1280xf16>
  util.global private @__auto.mid_block.attentions.0.proj_in.bias = #stream.parameter.named<"model"::"mid_block.attentions.0.proj_in.bias"> : tensor<1280xf16>
  util.global private @__auto.mid_block.attentions.0.transformer_blocks.0.norm1.weight = #stream.parameter.named<"model"::"mid_block.attentions.0.transformer_blocks.0.norm1.weight"> : tensor<1280xf16>
  util.global private @__auto.mid_block.attentions.0.transformer_blocks.0.norm1.bias = #stream.parameter.named<"model"::"mid_block.attentions.0.transformer_blocks.0.norm1.bias"> : tensor<1280xf16>
  util.global private @__auto.mid_block.attentions.0.transformer_blocks.0.attn1.to_q.weight = #stream.parameter.named<"model"::"mid_block.attentions.0.transformer_blocks.0.attn1.to_q.weight"> : tensor<1280x1280xf16>
  util.global private @__auto.mid_block.attentions.0.transformer_blocks.0.attn1.to_k.weight = #stream.parameter.named<"model"::"mid_block.attentions.0.transformer_blocks.0.attn1.to_k.weight"> : tensor<1280x1280xf16>
  util.global private @__auto.mid_block.attentions.0.transformer_blocks.0.attn1.to_v.weight = #stream.parameter.named<"model"::"mid_block.attentions.0.transformer_blocks.0.attn1.to_v.weight"> : tensor<1280x1280xf16>
  util.global private @__auto.mid_block.attentions.0.transformer_blocks.0.attn1.to_out.0.weight = #stream.parameter.named<"model"::"mid_block.attentions.0.transformer_blocks.0.attn1.to_out.0.weight"> : tensor<1280x1280xf16>
  util.global private @__auto.mid_block.attentions.0.transformer_blocks.0.attn1.to_out.0.bias = #stream.parameter.named<"model"::"mid_block.attentions.0.transformer_blocks.0.attn1.to_out.0.bias"> : tensor<1280xf16>
  util.global private @__auto.mid_block.attentions.0.transformer_blocks.0.norm2.weight = #stream.parameter.named<"model"::"mid_block.attentions.0.transformer_blocks.0.norm2.weight"> : tensor<1280xf16>
  util.global private @__auto.mid_block.attentions.0.transformer_blocks.0.norm2.bias = #stream.parameter.named<"model"::"mid_block.attentions.0.transformer_blocks.0.norm2.bias"> : tensor<1280xf16>
  util.global private @__auto.mid_block.attentions.0.transformer_blocks.0.attn2.to_q.weight = #stream.parameter.named<"model"::"mid_block.attentions.0.transformer_blocks.0.attn2.to_q.weight"> : tensor<1280x1280xf16>
  util.global private @__auto.mid_block.attentions.0.transformer_blocks.0.attn2.to_k.weight = #stream.parameter.named<"model"::"mid_block.attentions.0.transformer_blocks.0.attn2.to_k.weight"> : tensor<1280x2048xf16>
  util.global private @__auto.mid_block.attentions.0.transformer_blocks.0.attn2.to_v.weight = #stream.parameter.named<"model"::"mid_block.attentions.0.transformer_blocks.0.attn2.to_v.weight"> : tensor<1280x2048xf16>
  util.global private @__auto.mid_block.attentions.0.transformer_blocks.0.attn2.to_out.0.weight = #stream.parameter.named<"model"::"mid_block.attentions.0.transformer_blocks.0.attn2.to_out.0.weight"> : tensor<1280x1280xf16>
  util.global private @__auto.mid_block.attentions.0.transformer_blocks.0.attn2.to_out.0.bias = #stream.parameter.named<"model"::"mid_block.attentions.0.transformer_blocks.0.attn2.to_out.0.bias"> : tensor<1280xf16>
  util.global private @__auto.mid_block.attentions.0.transformer_blocks.0.norm3.weight = #stream.parameter.named<"model"::"mid_block.attentions.0.transformer_blocks.0.norm3.weight"> : tensor<1280xf16>
  util.global private @__auto.mid_block.attentions.0.transformer_blocks.0.norm3.bias = #stream.parameter.named<"model"::"mid_block.attentions.0.transformer_blocks.0.norm3.bias"> : tensor<1280xf16>
  util.global private @__auto.mid_block.attentions.0.transformer_blocks.0.ff.net.0.proj.weight = #stream.parameter.named<"model"::"mid_block.attentions.0.transformer_blocks.0.ff.net.0.proj.weight"> : tensor<10240x1280xf16>
  util.global private @__auto.mid_block.attentions.0.transformer_blocks.0.ff.net.0.proj.bias = #stream.parameter.named<"model"::"mid_block.attentions.0.transformer_blocks.0.ff.net.0.proj.bias"> : tensor<10240xf16>
  util.global private @__auto.mid_block.attentions.0.transformer_blocks.0.ff.net.2.weight = #stream.parameter.named<"model"::"mid_block.attentions.0.transformer_blocks.0.ff.net.2.weight"> : tensor<1280x5120xf16>
  util.global private @__auto.mid_block.attentions.0.transformer_blocks.0.ff.net.2.bias = #stream.parameter.named<"model"::"mid_block.attentions.0.transformer_blocks.0.ff.net.2.bias"> : tensor<1280xf16>
  util.global private @__auto.mid_block.attentions.0.transformer_blocks.1.norm1.weight = #stream.parameter.named<"model"::"mid_block.attentions.0.transformer_blocks.1.norm1.weight"> : tensor<1280xf16>
  util.global private @__auto.mid_block.attentions.0.transformer_blocks.1.norm1.bias = #stream.parameter.named<"model"::"mid_block.attentions.0.transformer_blocks.1.norm1.bias"> : tensor<1280xf16>
  util.global private @__auto.mid_block.attentions.0.transformer_blocks.1.attn1.to_q.weight = #stream.parameter.named<"model"::"mid_block.attentions.0.transformer_blocks.1.attn1.to_q.weight"> : tensor<1280x1280xf16>
  util.global private @__auto.mid_block.attentions.0.transformer_blocks.1.attn1.to_k.weight = #stream.parameter.named<"model"::"mid_block.attentions.0.transformer_blocks.1.attn1.to_k.weight"> : tensor<1280x1280xf16>
  util.global private @__auto.mid_block.attentions.0.transformer_blocks.1.attn1.to_v.weight = #stream.parameter.named<"model"::"mid_block.attentions.0.transformer_blocks.1.attn1.to_v.weight"> : tensor<1280x1280xf16>
  util.global private @__auto.mid_block.attentions.0.transformer_blocks.1.attn1.to_out.0.weight = #stream.parameter.named<"model"::"mid_block.attentions.0.transformer_blocks.1.attn1.to_out.0.weight"> : tensor<1280x1280xf16>
  util.global private @__auto.mid_block.attentions.0.transformer_blocks.1.attn1.to_out.0.bias = #stream.parameter.named<"model"::"mid_block.attentions.0.transformer_blocks.1.attn1.to_out.0.bias"> : tensor<1280xf16>
  util.global private @__auto.mid_block.attentions.0.transformer_blocks.1.norm2.weight = #stream.parameter.named<"model"::"mid_block.attentions.0.transformer_blocks.1.norm2.weight"> : tensor<1280xf16>
  util.global private @__auto.mid_block.attentions.0.transformer_blocks.1.norm2.bias = #stream.parameter.named<"model"::"mid_block.attentions.0.transformer_blocks.1.norm2.bias"> : tensor<1280xf16>
  util.global private @__auto.mid_block.attentions.0.transformer_blocks.1.attn2.to_q.weight = #stream.parameter.named<"model"::"mid_block.attentions.0.transformer_blocks.1.attn2.to_q.weight"> : tensor<1280x1280xf16>
  util.global private @__auto.mid_block.attentions.0.transformer_blocks.1.attn2.to_k.weight = #stream.parameter.named<"model"::"mid_block.attentions.0.transformer_blocks.1.attn2.to_k.weight"> : tensor<1280x2048xf16>
  util.global private @__auto.mid_block.attentions.0.transformer_blocks.1.attn2.to_v.weight = #stream.parameter.named<"model"::"mid_block.attentions.0.transformer_blocks.1.attn2.to_v.weight"> : tensor<1280x2048xf16>
  util.global private @__auto.mid_block.attentions.0.transformer_blocks.1.attn2.to_out.0.weight = #stream.parameter.named<"model"::"mid_block.attentions.0.transformer_blocks.1.attn2.to_out.0.weight"> : tensor<1280x1280xf16>
  util.global private @__auto.mid_block.attentions.0.transformer_blocks.1.attn2.to_out.0.bias = #stream.parameter.named<"model"::"mid_block.attentions.0.transformer_blocks.1.attn2.to_out.0.bias"> : tensor<1280xf16>
  util.global private @__auto.mid_block.attentions.0.transformer_blocks.1.norm3.weight = #stream.parameter.named<"model"::"mid_block.attentions.0.transformer_blocks.1.norm3.weight"> : tensor<1280xf16>
  util.global private @__auto.mid_block.attentions.0.transformer_blocks.1.norm3.bias = #stream.parameter.named<"model"::"mid_block.attentions.0.transformer_blocks.1.norm3.bias"> : tensor<1280xf16>
  util.global private @__auto.mid_block.attentions.0.transformer_blocks.1.ff.net.0.proj.weight = #stream.parameter.named<"model"::"mid_block.attentions.0.transformer_blocks.1.ff.net.0.proj.weight"> : tensor<10240x1280xf16>
  util.global private @__auto.mid_block.attentions.0.transformer_blocks.1.ff.net.0.proj.bias = #stream.parameter.named<"model"::"mid_block.attentions.0.transformer_blocks.1.ff.net.0.proj.bias"> : tensor<10240xf16>
  util.global private @__auto.mid_block.attentions.0.transformer_blocks.1.ff.net.2.weight = #stream.parameter.named<"model"::"mid_block.attentions.0.transformer_blocks.1.ff.net.2.weight"> : tensor<1280x5120xf16>
  util.global private @__auto.mid_block.attentions.0.transformer_blocks.1.ff.net.2.bias = #stream.parameter.named<"model"::"mid_block.attentions.0.transformer_blocks.1.ff.net.2.bias"> : tensor<1280xf16>
  util.global private @__auto.mid_block.attentions.0.transformer_blocks.2.norm1.weight = #stream.parameter.named<"model"::"mid_block.attentions.0.transformer_blocks.2.norm1.weight"> : tensor<1280xf16>
  util.global private @__auto.mid_block.attentions.0.transformer_blocks.2.norm1.bias = #stream.parameter.named<"model"::"mid_block.attentions.0.transformer_blocks.2.norm1.bias"> : tensor<1280xf16>
  util.global private @__auto.mid_block.attentions.0.transformer_blocks.2.attn1.to_q.weight = #stream.parameter.named<"model"::"mid_block.attentions.0.transformer_blocks.2.attn1.to_q.weight"> : tensor<1280x1280xf16>
  util.global private @__auto.mid_block.attentions.0.transformer_blocks.2.attn1.to_k.weight = #stream.parameter.named<"model"::"mid_block.attentions.0.transformer_blocks.2.attn1.to_k.weight"> : tensor<1280x1280xf16>
  util.global private @__auto.mid_block.attentions.0.transformer_blocks.2.attn1.to_v.weight = #stream.parameter.named<"model"::"mid_block.attentions.0.transformer_blocks.2.attn1.to_v.weight"> : tensor<1280x1280xf16>
  util.global private @__auto.mid_block.attentions.0.transformer_blocks.2.attn1.to_out.0.weight = #stream.parameter.named<"model"::"mid_block.attentions.0.transformer_blocks.2.attn1.to_out.0.weight"> : tensor<1280x1280xf16>
  util.global private @__auto.mid_block.attentions.0.transformer_blocks.2.attn1.to_out.0.bias = #stream.parameter.named<"model"::"mid_block.attentions.0.transformer_blocks.2.attn1.to_out.0.bias"> : tensor<1280xf16>
  util.global private @__auto.mid_block.attentions.0.transformer_blocks.2.norm2.weight = #stream.parameter.named<"model"::"mid_block.attentions.0.transformer_blocks.2.norm2.weight"> : tensor<1280xf16>
  util.global private @__auto.mid_block.attentions.0.transformer_blocks.2.norm2.bias = #stream.parameter.named<"model"::"mid_block.attentions.0.transformer_blocks.2.norm2.bias"> : tensor<1280xf16>
  util.global private @__auto.mid_block.attentions.0.transformer_blocks.2.attn2.to_q.weight = #stream.parameter.named<"model"::"mid_block.attentions.0.transformer_blocks.2.attn2.to_q.weight"> : tensor<1280x1280xf16>
  util.global private @__auto.mid_block.attentions.0.transformer_blocks.2.attn2.to_k.weight = #stream.parameter.named<"model"::"mid_block.attentions.0.transformer_blocks.2.attn2.to_k.weight"> : tensor<1280x2048xf16>
  util.global private @__auto.mid_block.attentions.0.transformer_blocks.2.attn2.to_v.weight = #stream.parameter.named<"model"::"mid_block.attentions.0.transformer_blocks.2.attn2.to_v.weight"> : tensor<1280x2048xf16>
  util.global private @__auto.mid_block.attentions.0.transformer_blocks.2.attn2.to_out.0.weight = #stream.parameter.named<"model"::"mid_block.attentions.0.transformer_blocks.2.attn2.to_out.0.weight"> : tensor<1280x1280xf16>
  util.global private @__auto.mid_block.attentions.0.transformer_blocks.2.attn2.to_out.0.bias = #stream.parameter.named<"model"::"mid_block.attentions.0.transformer_blocks.2.attn2.to_out.0.bias"> : tensor<1280xf16>
  util.global private @__auto.mid_block.attentions.0.transformer_blocks.2.norm3.weight = #stream.parameter.named<"model"::"mid_block.attentions.0.transformer_blocks.2.norm3.weight"> : tensor<1280xf16>
  util.global private @__auto.mid_block.attentions.0.transformer_blocks.2.norm3.bias = #stream.parameter.named<"model"::"mid_block.attentions.0.transformer_blocks.2.norm3.bias"> : tensor<1280xf16>
  util.global private @__auto.mid_block.attentions.0.transformer_blocks.2.ff.net.0.proj.weight = #stream.parameter.named<"model"::"mid_block.attentions.0.transformer_blocks.2.ff.net.0.proj.weight"> : tensor<10240x1280xf16>
  util.global private @__auto.mid_block.attentions.0.transformer_blocks.2.ff.net.0.proj.bias = #stream.parameter.named<"model"::"mid_block.attentions.0.transformer_blocks.2.ff.net.0.proj.bias"> : tensor<10240xf16>
  util.global private @__auto.mid_block.attentions.0.transformer_blocks.2.ff.net.2.weight = #stream.parameter.named<"model"::"mid_block.attentions.0.transformer_blocks.2.ff.net.2.weight"> : tensor<1280x5120xf16>
  util.global private @__auto.mid_block.attentions.0.transformer_blocks.2.ff.net.2.bias = #stream.parameter.named<"model"::"mid_block.attentions.0.transformer_blocks.2.ff.net.2.bias"> : tensor<1280xf16>
  util.global private @__auto.mid_block.attentions.0.transformer_blocks.3.norm1.weight = #stream.parameter.named<"model"::"mid_block.attentions.0.transformer_blocks.3.norm1.weight"> : tensor<1280xf16>
  util.global private @__auto.mid_block.attentions.0.transformer_blocks.3.norm1.bias = #stream.parameter.named<"model"::"mid_block.attentions.0.transformer_blocks.3.norm1.bias"> : tensor<1280xf16>
  util.global private @__auto.mid_block.attentions.0.transformer_blocks.3.attn1.to_q.weight = #stream.parameter.named<"model"::"mid_block.attentions.0.transformer_blocks.3.attn1.to_q.weight"> : tensor<1280x1280xf16>
  util.global private @__auto.mid_block.attentions.0.transformer_blocks.3.attn1.to_k.weight = #stream.parameter.named<"model"::"mid_block.attentions.0.transformer_blocks.3.attn1.to_k.weight"> : tensor<1280x1280xf16>
  util.global private @__auto.mid_block.attentions.0.transformer_blocks.3.attn1.to_v.weight = #stream.parameter.named<"model"::"mid_block.attentions.0.transformer_blocks.3.attn1.to_v.weight"> : tensor<1280x1280xf16>
  util.global private @__auto.mid_block.attentions.0.transformer_blocks.3.attn1.to_out.0.weight = #stream.parameter.named<"model"::"mid_block.attentions.0.transformer_blocks.3.attn1.to_out.0.weight"> : tensor<1280x1280xf16>
  util.global private @__auto.mid_block.attentions.0.transformer_blocks.3.attn1.to_out.0.bias = #stream.parameter.named<"model"::"mid_block.attentions.0.transformer_blocks.3.attn1.to_out.0.bias"> : tensor<1280xf16>
  util.global private @__auto.mid_block.attentions.0.transformer_blocks.3.norm2.weight = #stream.parameter.named<"model"::"mid_block.attentions.0.transformer_blocks.3.norm2.weight"> : tensor<1280xf16>
  util.global private @__auto.mid_block.attentions.0.transformer_blocks.3.norm2.bias = #stream.parameter.named<"model"::"mid_block.attentions.0.transformer_blocks.3.norm2.bias"> : tensor<1280xf16>
  util.global private @__auto.mid_block.attentions.0.transformer_blocks.3.attn2.to_q.weight = #stream.parameter.named<"model"::"mid_block.attentions.0.transformer_blocks.3.attn2.to_q.weight"> : tensor<1280x1280xf16>
  util.global private @__auto.mid_block.attentions.0.transformer_blocks.3.attn2.to_k.weight = #stream.parameter.named<"model"::"mid_block.attentions.0.transformer_blocks.3.attn2.to_k.weight"> : tensor<1280x2048xf16>
  util.global private @__auto.mid_block.attentions.0.transformer_blocks.3.attn2.to_v.weight = #stream.parameter.named<"model"::"mid_block.attentions.0.transformer_blocks.3.attn2.to_v.weight"> : tensor<1280x2048xf16>
  util.global private @__auto.mid_block.attentions.0.transformer_blocks.3.attn2.to_out.0.weight = #stream.parameter.named<"model"::"mid_block.attentions.0.transformer_blocks.3.attn2.to_out.0.weight"> : tensor<1280x1280xf16>
  util.global private @__auto.mid_block.attentions.0.transformer_blocks.3.attn2.to_out.0.bias = #stream.parameter.named<"model"::"mid_block.attentions.0.transformer_blocks.3.attn2.to_out.0.bias"> : tensor<1280xf16>
  util.global private @__auto.mid_block.attentions.0.transformer_blocks.3.norm3.weight = #stream.parameter.named<"model"::"mid_block.attentions.0.transformer_blocks.3.norm3.weight"> : tensor<1280xf16>
  util.global private @__auto.mid_block.attentions.0.transformer_blocks.3.norm3.bias = #stream.parameter.named<"model"::"mid_block.attentions.0.transformer_blocks.3.norm3.bias"> : tensor<1280xf16>
  util.global private @__auto.mid_block.attentions.0.transformer_blocks.3.ff.net.0.proj.weight = #stream.parameter.named<"model"::"mid_block.attentions.0.transformer_blocks.3.ff.net.0.proj.weight"> : tensor<10240x1280xf16>
  util.global private @__auto.mid_block.attentions.0.transformer_blocks.3.ff.net.0.proj.bias = #stream.parameter.named<"model"::"mid_block.attentions.0.transformer_blocks.3.ff.net.0.proj.bias"> : tensor<10240xf16>
  util.global private @__auto.mid_block.attentions.0.transformer_blocks.3.ff.net.2.weight = #stream.parameter.named<"model"::"mid_block.attentions.0.transformer_blocks.3.ff.net.2.weight"> : tensor<1280x5120xf16>
  util.global private @__auto.mid_block.attentions.0.transformer_blocks.3.ff.net.2.bias = #stream.parameter.named<"model"::"mid_block.attentions.0.transformer_blocks.3.ff.net.2.bias"> : tensor<1280xf16>
  util.global private @__auto.mid_block.attentions.0.transformer_blocks.4.norm1.weight = #stream.parameter.named<"model"::"mid_block.attentions.0.transformer_blocks.4.norm1.weight"> : tensor<1280xf16>
  util.global private @__auto.mid_block.attentions.0.transformer_blocks.4.norm1.bias = #stream.parameter.named<"model"::"mid_block.attentions.0.transformer_blocks.4.norm1.bias"> : tensor<1280xf16>
  util.global private @__auto.mid_block.attentions.0.transformer_blocks.4.attn1.to_q.weight = #stream.parameter.named<"model"::"mid_block.attentions.0.transformer_blocks.4.attn1.to_q.weight"> : tensor<1280x1280xf16>
  util.global private @__auto.mid_block.attentions.0.transformer_blocks.4.attn1.to_k.weight = #stream.parameter.named<"model"::"mid_block.attentions.0.transformer_blocks.4.attn1.to_k.weight"> : tensor<1280x1280xf16>
  util.global private @__auto.mid_block.attentions.0.transformer_blocks.4.attn1.to_v.weight = #stream.parameter.named<"model"::"mid_block.attentions.0.transformer_blocks.4.attn1.to_v.weight"> : tensor<1280x1280xf16>
  util.global private @__auto.mid_block.attentions.0.transformer_blocks.4.attn1.to_out.0.weight = #stream.parameter.named<"model"::"mid_block.attentions.0.transformer_blocks.4.attn1.to_out.0.weight"> : tensor<1280x1280xf16>
  util.global private @__auto.mid_block.attentions.0.transformer_blocks.4.attn1.to_out.0.bias = #stream.parameter.named<"model"::"mid_block.attentions.0.transformer_blocks.4.attn1.to_out.0.bias"> : tensor<1280xf16>
  util.global private @__auto.mid_block.attentions.0.transformer_blocks.4.norm2.weight = #stream.parameter.named<"model"::"mid_block.attentions.0.transformer_blocks.4.norm2.weight"> : tensor<1280xf16>
  util.global private @__auto.mid_block.attentions.0.transformer_blocks.4.norm2.bias = #stream.parameter.named<"model"::"mid_block.attentions.0.transformer_blocks.4.norm2.bias"> : tensor<1280xf16>
  util.global private @__auto.mid_block.attentions.0.transformer_blocks.4.attn2.to_q.weight = #stream.parameter.named<"model"::"mid_block.attentions.0.transformer_blocks.4.attn2.to_q.weight"> : tensor<1280x1280xf16>
  util.global private @__auto.mid_block.attentions.0.transformer_blocks.4.attn2.to_k.weight = #stream.parameter.named<"model"::"mid_block.attentions.0.transformer_blocks.4.attn2.to_k.weight"> : tensor<1280x2048xf16>
  util.global private @__auto.mid_block.attentions.0.transformer_blocks.4.attn2.to_v.weight = #stream.parameter.named<"model"::"mid_block.attentions.0.transformer_blocks.4.attn2.to_v.weight"> : tensor<1280x2048xf16>
  util.global private @__auto.mid_block.attentions.0.transformer_blocks.4.attn2.to_out.0.weight = #stream.parameter.named<"model"::"mid_block.attentions.0.transformer_blocks.4.attn2.to_out.0.weight"> : tensor<1280x1280xf16>
  util.global private @__auto.mid_block.attentions.0.transformer_blocks.4.attn2.to_out.0.bias = #stream.parameter.named<"model"::"mid_block.attentions.0.transformer_blocks.4.attn2.to_out.0.bias"> : tensor<1280xf16>
  util.global private @__auto.mid_block.attentions.0.transformer_blocks.4.norm3.weight = #stream.parameter.named<"model"::"mid_block.attentions.0.transformer_blocks.4.norm3.weight"> : tensor<1280xf16>
  util.global private @__auto.mid_block.attentions.0.transformer_blocks.4.norm3.bias = #stream.parameter.named<"model"::"mid_block.attentions.0.transformer_blocks.4.norm3.bias"> : tensor<1280xf16>
  util.global private @__auto.mid_block.attentions.0.transformer_blocks.4.ff.net.0.proj.weight = #stream.parameter.named<"model"::"mid_block.attentions.0.transformer_blocks.4.ff.net.0.proj.weight"> : tensor<10240x1280xf16>
  util.global private @__auto.mid_block.attentions.0.transformer_blocks.4.ff.net.0.proj.bias = #stream.parameter.named<"model"::"mid_block.attentions.0.transformer_blocks.4.ff.net.0.proj.bias"> : tensor<10240xf16>
  util.global private @__auto.mid_block.attentions.0.transformer_blocks.4.ff.net.2.weight = #stream.parameter.named<"model"::"mid_block.attentions.0.transformer_blocks.4.ff.net.2.weight"> : tensor<1280x5120xf16>
  util.global private @__auto.mid_block.attentions.0.transformer_blocks.4.ff.net.2.bias = #stream.parameter.named<"model"::"mid_block.attentions.0.transformer_blocks.4.ff.net.2.bias"> : tensor<1280xf16>
  util.global private @__auto.mid_block.attentions.0.transformer_blocks.5.norm1.weight = #stream.parameter.named<"model"::"mid_block.attentions.0.transformer_blocks.5.norm1.weight"> : tensor<1280xf16>
  util.global private @__auto.mid_block.attentions.0.transformer_blocks.5.norm1.bias = #stream.parameter.named<"model"::"mid_block.attentions.0.transformer_blocks.5.norm1.bias"> : tensor<1280xf16>
  util.global private @__auto.mid_block.attentions.0.transformer_blocks.5.attn1.to_q.weight = #stream.parameter.named<"model"::"mid_block.attentions.0.transformer_blocks.5.attn1.to_q.weight"> : tensor<1280x1280xf16>
  util.global private @__auto.mid_block.attentions.0.transformer_blocks.5.attn1.to_k.weight = #stream.parameter.named<"model"::"mid_block.attentions.0.transformer_blocks.5.attn1.to_k.weight"> : tensor<1280x1280xf16>
  util.global private @__auto.mid_block.attentions.0.transformer_blocks.5.attn1.to_v.weight = #stream.parameter.named<"model"::"mid_block.attentions.0.transformer_blocks.5.attn1.to_v.weight"> : tensor<1280x1280xf16>
  util.global private @__auto.mid_block.attentions.0.transformer_blocks.5.attn1.to_out.0.weight = #stream.parameter.named<"model"::"mid_block.attentions.0.transformer_blocks.5.attn1.to_out.0.weight"> : tensor<1280x1280xf16>
  util.global private @__auto.mid_block.attentions.0.transformer_blocks.5.attn1.to_out.0.bias = #stream.parameter.named<"model"::"mid_block.attentions.0.transformer_blocks.5.attn1.to_out.0.bias"> : tensor<1280xf16>
  util.global private @__auto.mid_block.attentions.0.transformer_blocks.5.norm2.weight = #stream.parameter.named<"model"::"mid_block.attentions.0.transformer_blocks.5.norm2.weight"> : tensor<1280xf16>
  util.global private @__auto.mid_block.attentions.0.transformer_blocks.5.norm2.bias = #stream.parameter.named<"model"::"mid_block.attentions.0.transformer_blocks.5.norm2.bias"> : tensor<1280xf16>
  util.global private @__auto.mid_block.attentions.0.transformer_blocks.5.attn2.to_q.weight = #stream.parameter.named<"model"::"mid_block.attentions.0.transformer_blocks.5.attn2.to_q.weight"> : tensor<1280x1280xf16>
  util.global private @__auto.mid_block.attentions.0.transformer_blocks.5.attn2.to_k.weight = #stream.parameter.named<"model"::"mid_block.attentions.0.transformer_blocks.5.attn2.to_k.weight"> : tensor<1280x2048xf16>
  util.global private @__auto.mid_block.attentions.0.transformer_blocks.5.attn2.to_v.weight = #stream.parameter.named<"model"::"mid_block.attentions.0.transformer_blocks.5.attn2.to_v.weight"> : tensor<1280x2048xf16>
  util.global private @__auto.mid_block.attentions.0.transformer_blocks.5.attn2.to_out.0.weight = #stream.parameter.named<"model"::"mid_block.attentions.0.transformer_blocks.5.attn2.to_out.0.weight"> : tensor<1280x1280xf16>
  util.global private @__auto.mid_block.attentions.0.transformer_blocks.5.attn2.to_out.0.bias = #stream.parameter.named<"model"::"mid_block.attentions.0.transformer_blocks.5.attn2.to_out.0.bias"> : tensor<1280xf16>
  util.global private @__auto.mid_block.attentions.0.transformer_blocks.5.norm3.weight = #stream.parameter.named<"model"::"mid_block.attentions.0.transformer_blocks.5.norm3.weight"> : tensor<1280xf16>
  util.global private @__auto.mid_block.attentions.0.transformer_blocks.5.norm3.bias = #stream.parameter.named<"model"::"mid_block.attentions.0.transformer_blocks.5.norm3.bias"> : tensor<1280xf16>
  util.global private @__auto.mid_block.attentions.0.transformer_blocks.5.ff.net.0.proj.weight = #stream.parameter.named<"model"::"mid_block.attentions.0.transformer_blocks.5.ff.net.0.proj.weight"> : tensor<10240x1280xf16>
  util.global private @__auto.mid_block.attentions.0.transformer_blocks.5.ff.net.0.proj.bias = #stream.parameter.named<"model"::"mid_block.attentions.0.transformer_blocks.5.ff.net.0.proj.bias"> : tensor<10240xf16>
  util.global private @__auto.mid_block.attentions.0.transformer_blocks.5.ff.net.2.weight = #stream.parameter.named<"model"::"mid_block.attentions.0.transformer_blocks.5.ff.net.2.weight"> : tensor<1280x5120xf16>
  util.global private @__auto.mid_block.attentions.0.transformer_blocks.5.ff.net.2.bias = #stream.parameter.named<"model"::"mid_block.attentions.0.transformer_blocks.5.ff.net.2.bias"> : tensor<1280xf16>
  util.global private @__auto.mid_block.attentions.0.transformer_blocks.6.norm1.weight = #stream.parameter.named<"model"::"mid_block.attentions.0.transformer_blocks.6.norm1.weight"> : tensor<1280xf16>
  util.global private @__auto.mid_block.attentions.0.transformer_blocks.6.norm1.bias = #stream.parameter.named<"model"::"mid_block.attentions.0.transformer_blocks.6.norm1.bias"> : tensor<1280xf16>
  util.global private @__auto.mid_block.attentions.0.transformer_blocks.6.attn1.to_q.weight = #stream.parameter.named<"model"::"mid_block.attentions.0.transformer_blocks.6.attn1.to_q.weight"> : tensor<1280x1280xf16>
…
    %13472 = torch.prims.convert_element_type %13471, %int6_15110 : !torch.vtensor<[2,32,30,16384],f16>, !torch.int -> !torch.vtensor<[2,32,30,16384],f32>
    %int2_15111 = torch.constant.int 2
    %int3_15112 = torch.constant.int 3
    %13473 = torch.prim.ListConstruct %int2_15111, %int3_15112 : (!torch.int, !torch.int) -> !torch.list<int>
    %int0_15113 = torch.constant.int 0
    %true_15114 = torch.constant.bool true
    %result0_15115, %result1_15116 = torch.aten.var_mean.correction %13472, %13473, %int0_15113, %true_15114 : !torch.vtensor<[2,32,30,16384],f32>, !torch.list<int>, !torch.int, !torch.bool -> !torch.vtensor<[2,32,1,1],f32>, !torch.vtensor<[2,32,1,1],f32>
    %float1.000000e-05_15117 = torch.constant.float 1.000000e-05
    %int1_15118 = torch.constant.int 1
    %13474 = torch.aten.add.Scalar %result0_15115, %float1.000000e-05_15117, %int1_15118 : !torch.vtensor<[2,32,1,1],f32>, !torch.float, !torch.int -> !torch.vtensor<[2,32,1,1],f32>
    %13475 = torch.aten.rsqrt %13474 : !torch.vtensor<[2,32,1,1],f32> -> !torch.vtensor<[2,32,1,1],f32>
    %int1_15119 = torch.constant.int 1
    %13476 = torch.aten.sub.Tensor %13471, %result1_15116, %int1_15119 : !torch.vtensor<[2,32,30,16384],f16>, !torch.vtensor<[2,32,1,1],f32>, !torch.int -> !torch.vtensor<[2,32,30,16384],f32>
    %13477 = torch.aten.mul.Tensor %13476, %13475 : !torch.vtensor<[2,32,30,16384],f32>, !torch.vtensor<[2,32,1,1],f32> -> !torch.vtensor<[2,32,30,16384],f32>
    %int2_15120 = torch.constant.int 2
    %int960_15121 = torch.constant.int 960
    %int128_15122 = torch.constant.int 128
    %int128_15123 = torch.constant.int 128
    %13478 = torch.prim.ListConstruct %int2_15120, %int960_15121, %int128_15122, %int128_15123 : (!torch.int, !torch.int, !torch.int, !torch.int) -> !torch.list<int>
    %13479 = torch.aten.view %13477, %13478 : !torch.vtensor<[2,32,30,16384],f32>, !torch.list<int> -> !torch.vtensor<[2,960,128,128],f32>
    %int0_15124 = torch.constant.int 0
    %13480 = torch.aten.unsqueeze %1641, %int0_15124 : !torch.vtensor<[960],f16>, !torch.int -> !torch.vtensor<[1,960],f16>
    %int2_15125 = torch.constant.int 2
    %13481 = torch.aten.unsqueeze %13480, %int2_15125 : !torch.vtensor<[1,960],f16>, !torch.int -> !torch.vtensor<[1,960,1],f16>
    %int3_15126 = torch.constant.int 3
    %13482 = torch.aten.unsqueeze %13481, %int3_15126 : !torch.vtensor<[1,960,1],f16>, !torch.int -> !torch.vtensor<[1,960,1,1],f16>
    %int0_15127 = torch.constant.int 0
    %13483 = torch.aten.unsqueeze %1640, %int0_15127 : !torch.vtensor<[960],f16>, !torch.int -> !torch.vtensor<[1,960],f16>
    %int2_15128 = torch.constant.int 2
    %13484 = torch.aten.unsqueeze %13483, %int2_15128 : !torch.vtensor<[1,960],f16>, !torch.int -> !torch.vtensor<[1,960,1],f16>
    %int3_15129 = torch.constant.int 3
    %13485 = torch.aten.unsqueeze %13484, %int3_15129 : !torch.vtensor<[1,960,1],f16>, !torch.int -> !torch.vtensor<[1,960,1,1],f16>
    %13486 = torch.aten.mul.Tensor %13479, %13485 : !torch.vtensor<[2,960,128,128],f32>, !torch.vtensor<[1,960,1,1],f16> -> !torch.vtensor<[2,960,128,128],f32>
    %int1_15130 = torch.constant.int 1
    %13487 = torch.aten.add.Tensor %13486, %13482, %int1_15130 : !torch.vtensor<[2,960,128,128],f32>, !torch.vtensor<[1,960,1,1],f16>, !torch.int -> !torch.vtensor<[2,960,128,128],f32>
    %int5_15131 = torch.constant.int 5
    %13488 = torch.prims.convert_element_type %13487, %int5_15131 : !torch.vtensor<[2,960,128,128],f32>, !torch.int -> !torch.vtensor<[2,960,128,128],f16>
    %13489 = torch.aten.silu %13488 : !torch.vtensor<[2,960,128,128],f16> -> !torch.vtensor<[2,960,128,128],f16>
    %int1_15132 = torch.constant.int 1
    %int1_15133 = torch.constant.int 1
    %13490 = torch.prim.ListConstruct %int1_15132, %int1_15133 : (!torch.int, !torch.int) -> !torch.list<int>
    %int1_15134 = torch.constant.int 1
    %int1_15135 = torch.constant.int 1
    %13491 = torch.prim.ListConstruct %int1_15134, %int1_15135 : (!torch.int, !torch.int) -> !torch.list<int>
    %int1_15136 = torch.constant.int 1
    %int1_15137 = torch.constant.int 1
    %13492 = torch.prim.ListConstruct %int1_15136, %int1_15137 : (!torch.int, !torch.int) -> !torch.list<int>
    %false_15138 = torch.constant.bool false
    %int0_15139 = torch.constant.int 0
    %int0_15140 = torch.constant.int 0
    %13493 = torch.prim.ListConstruct %int0_15139, %int0_15140 : (!torch.int, !torch.int) -> !torch.list<int>
    %int1_15141 = torch.constant.int 1
    %13494 = torch.aten.convolution %13489, %1642, %1643, %13490, %13491, %13492, %false_15138, %13493, %int1_15141 : !torch.vtensor<[2,960,128,128],f16>, !torch.vtensor<[320,960,3,3],f16>, !torch.vtensor<[320],f16>, !torch.list<int>, !torch.list<int>, !torch.list<int>, !torch.bool, !torch.list<int>, !torch.int -> !torch.vtensor<[2,320,128,128],f16>
    %13495 = torch.aten.silu %1756 : !torch.vtensor<[2,1280],f16> -> !torch.vtensor<[2,1280],f16>
    %int1_15142 = torch.constant.int 1
    %int0_15143 = torch.constant.int 0
    %13496 = torch.prim.ListConstruct %int1_15142, %int0_15143 : (!torch.int, !torch.int) -> !torch.list<int>
    %13497 = torch.aten.permute %1644, %13496 : !torch.vtensor<[320,1280],f16>, !torch.list<int> -> !torch.vtensor<[1280,320],f16>
    %int5_15144 = torch.constant.int 5
    %13498 = torch.prims.convert_element_type %13497, %int5_15144 : !torch.vtensor<[1280,320],f16>, !torch.int -> !torch.vtensor<[1280,320],f16>
    %13499 = torch.aten.mm %13495, %13498 : !torch.vtensor<[2,1280],f16>, !torch.vtensor<[1280,320],f16> -> !torch.vtensor<[2,320],f16>
    %int1_15145 = torch.constant.int 1
    %13500 = torch.aten.add.Tensor %13499, %1645, %int1_15145 : !torch.vtensor<[2,320],f16>, !torch.vtensor<[320],f16>, !torch.int -> !torch.vtensor<[2,320],f16>
    %int0_15146 = torch.constant.int 0
    %int0_15147 = torch.constant.int 0
    %int9223372036854775807_15148 = torch.constant.int 9223372036854775807
    %int1_15149 = torch.constant.int 1
    %13501 = torch.aten.slice.Tensor %13500, %int0_15146, %int0_15147, %int9223372036854775807_15148, %int1_15149 : !torch.vtensor<[2,320],f16>, !torch.int, !torch.int, !torch.int, !torch.int -> !torch.vtensor<[2,320],f16>
    %int1_15150 = torch.constant.int 1
    %int0_15151 = torch.constant.int 0
    %int9223372036854775807_15152 = torch.constant.int 9223372036854775807
    %int1_15153 = torch.constant.int 1
    %13502 = torch.aten.slice.Tensor %13501, %int1_15150, %int0_15151, %int9223372036854775807_15152, %int1_15153 : !torch.vtensor<[2,320],f16>, !torch.int, !torch.int, !torch.int, !torch.int -> !torch.vtensor<[2,320],f16>
    %int2_15154 = torch.constant.int 2
    %13503 = torch.aten.unsqueeze %13502, %int2_15154 : !torch.vtensor<[2,320],f16>, !torch.int -> !torch.vtensor<[2,320,1],f16>
    %int3_15155 = torch.constant.int 3
    %13504 = torch.aten.unsqueeze %13503, %int3_15155 : !torch.vtensor<[2,320,1],f16>, !torch.int -> !torch.vtensor<[2,320,1,1],f16>
    %int1_15156 = torch.constant.int 1
    %13505 = torch.aten.add.Tensor %13494, %13504, %int1_15156 : !torch.vtensor<[2,320,128,128],f16>, !torch.vtensor<[2,320,1,1],f16>, !torch.int -> !torch.vtensor<[2,320,128,128],f16>
    %int2_15157 = torch.constant.int 2
    %int32_15158 = torch.constant.int 32
    %int10_15159 = torch.constant.int 10
    %int16384_15160 = torch.constant.int 16384
    %13506 = torch.prim.ListConstruct %int2_15157, %int32_15158, %int10_15159, %int16384_15160 : (!torch.int, !torch.int, !torch.int, !torch.int) -> !torch.list<int>
    %13507 = torch.aten.view %13505, %13506 : !torch.vtensor<[2,320,128,128],f16>, !torch.list<int> -> !torch.vtensor<[2,32,10,16384],f16>
    %int6_15161 = torch.constant.int 6
    %13508 = torch.prims.convert_element_type %13507, %int6_15161 : !torch.vtensor<[2,32,10,16384],f16>, !torch.int -> !torch.vtensor<[2,32,10,16384],f32>
    %int2_15162 = torch.constant.int 2
    %int3_15163 = torch.constant.int 3
    %13509 = torch.prim.ListConstruct %int2_15162, %int3_15163 : (!torch.int, !torch.int) -> !torch.list<int>
    %int0_15164 = torch.constant.int 0
    %true_15165 = torch.constant.bool true
    %result0_15166, %result1_15167 = torch.aten.var_mean.correction %13508, %13509, %int0_15164, %true_15165 : !torch.vtensor<[2,32,10,16384],f32>, !torch.list<int>, !torch.int, !torch.bool -> !torch.vtensor<[2,32,1,1],f32>, !torch.vtensor<[2,32,1,1],f32>
    %float1.000000e-05_15168 = torch.constant.float 1.000000e-05
    %int1_15169 = torch.constant.int 1
    %13510 = torch.aten.add.Scalar %result0_15166, %float1.000000e-05_15168, %int1_15169 : !torch.vtensor<[2,32,1,1],f32>, !torch.float, !torch.int -> !torch.vtensor<[2,32,1,1],f32>
    %13511 = torch.aten.rsqrt %13510 : !torch.vtensor<[2,32,1,1],f32> -> !torch.vtensor<[2,32,1,1],f32>
    %int1_15170 = torch.constant.int 1
    %13512 = torch.aten.sub.Tensor %13507, %result1_15167, %int1_15170 : !torch.vtensor<[2,32,10,16384],f16>, !torch.vtensor<[2,32,1,1],f32>, !torch.int -> !torch.vtensor<[2,32,10,16384],f32>
    %13513 = torch.aten.mul.Tensor %13512, %13511 : !torch.vtensor<[2,32,10,16384],f32>, !torch.vtensor<[2,32,1,1],f32> -> !torch.vtensor<[2,32,10,16384],f32>
    %int2_15171 = torch.constant.int 2
    %int320_15172 = torch.constant.int 320
    %int128_15173 = torch.constant.int 128
    %int128_15174 = torch.constant.int 128
    %13514 = torch.prim.ListConstruct %int2_15171, %int320_15172, %int128_15173, %int128_15174 : (!torch.int, !torch.int, !torch.int, !torch.int) -> !torch.list<int>
    %13515 = torch.aten.view %13513, %13514 : !torch.vtensor<[2,32,10,16384],f32>, !torch.list<int> -> !torch.vtensor<[2,320,128,128],f32>
    %int0_15175 = torch.constant.int 0
    %13516 = torch.aten.unsqueeze %1647, %int0_15175 : !torch.vtensor<[320],f16>, !torch.int -> !torch.vtensor<[1,320],f16>
    %int2_15176 = torch.constant.int 2
    %13517 = torch.aten.unsqueeze %13516, %int2_15176 : !torch.vtensor<[1,320],f16>, !torch.int -> !torch.vtensor<[1,320,1],f16>
    %int3_15177 = torch.constant.int 3
    %13518 = torch.aten.unsqueeze %13517, %int3_15177 : !torch.vtensor<[1,320,1],f16>, !torch.int -> !torch.vtensor<[1,320,1,1],f16>
    %int0_15178 = torch.constant.int 0
    %13519 = torch.aten.unsqueeze %1646, %int0_15178 : !torch.vtensor<[320],f16>, !torch.int -> !torch.vtensor<[1,320],f16>
    %int2_15179 = torch.constant.int 2
    %13520 = torch.aten.unsqueeze %13519, %int2_15179 : !torch.vtensor<[1,320],f16>, !torch.int -> !torch.vtensor<[1,320,1],f16>
    %int3_15180 = torch.constant.int 3
    %13521 = torch.aten.unsqueeze %13520, %int3_15180 : !torch.vtensor<[1,320,1],f16>, !torch.int -> !torch.vtensor<[1,320,1,1],f16>
    %13522 = torch.aten.mul.Tensor %13515, %13521 : !torch.vtensor<[2,320,128,128],f32>, !torch.vtensor<[1,320,1,1],f16> -> !torch.vtensor<[2,320,128,128],f32>
    %int1_15181 = torch.constant.int 1
    %13523 = torch.aten.add.Tensor %13522, %13518, %int1_15181 : !torch.vtensor<[2,320,128,128],f32>, !torch.vtensor<[1,320,1,1],f16>, !torch.int -> !torch.vtensor<[2,320,128,128],f32>
    %int5_15182 = torch.constant.int 5
    %13524 = torch.prims.convert_element_type %13523, %int5_15182 : !torch.vtensor<[2,320,128,128],f32>, !torch.int -> !torch.vtensor<[2,320,128,128],f16>
    %13525 = torch.aten.silu %13524 : !torch.vtensor<[2,320,128,128],f16> -> !torch.vtensor<[2,320,128,128],f16>
    %int1_15183 = torch.constant.int 1
    %int1_15184 = torch.constant.int 1
    %13526 = torch.prim.ListConstruct %int1_15183, %int1_15184 : (!torch.int, !torch.int) -> !torch.list<int>
    %int1_15185 = torch.constant.int 1
    %int1_15186 = torch.constant.int 1
    %13527 = torch.prim.ListConstruct %int1_15185, %int1_15186 : (!torch.int, !torch.int) -> !torch.list<int>
    %int1_15187 = torch.constant.int 1
    %int1_15188 = torch.constant.int 1
    %13528 = torch.prim.ListConstruct %int1_15187, %int1_15188 : (!torch.int, !torch.int) -> !torch.list<int>
    %false_15189 = torch.constant.bool false
    %int0_15190 = torch.constant.int 0
    %int0_15191 = torch.constant.int 0
    %13529 = torch.prim.ListConstruct %int0_15190, %int0_15191 : (!torch.int, !torch.int) -> !torch.list<int>
    %int1_15192 = torch.constant.int 1
    %13530 = torch.aten.convolution %13525, %1648, %1649, %13526, %13527, %13528, %false_15189, %13529, %int1_15192 : !torch.vtensor<[2,320,128,128],f16>, !torch.vtensor<[320,320,3,3],f16>, !torch.vtensor<[320],f16>, !torch.list<int>, !torch.list<int>, !torch.list<int>, !torch.bool, !torch.list<int>, !torch.int -> !torch.vtensor<[2,320,128,128],f16>
    %int1_15193 = torch.constant.int 1
    %int1_15194 = torch.constant.int 1
    %13531 = torch.prim.ListConstruct %int1_15193, %int1_15194 : (!torch.int, !torch.int) -> !torch.list<int>
    %int0_15195 = torch.constant.int 0
    %int0_15196 = torch.constant.int 0
    %13532 = torch.prim.ListConstruct %int0_15195, %int0_15196 : (!torch.int, !torch.int) -> !torch.list<int>
    %int1_15197 = torch.constant.int 1
    %int1_15198 = torch.constant.int 1
    %13533 = torch.prim.ListConstruct %int1_15197, %int1_15198 : (!torch.int, !torch.int) -> !torch.list<int>
    %false_15199 = torch.constant.bool false
    %int0_15200 = torch.constant.int 0
    %int0_15201 = torch.constant.int 0
    %13534 = torch.prim.ListConstruct %int0_15200, %int0_15201 : (!torch.int, !torch.int) -> !torch.list<int>
    %int1_15202 = torch.constant.int 1
    %13535 = torch.aten.convolution %13469, %1650, %1651, %13531, %13532, %13533, %false_15199, %13534, %int1_15202 : !torch.vtensor<[2,960,128,128],f16>, !torch.vtensor<[320,960,1,1],f16>, !torch.vtensor<[320],f16>, !torch.list<int>, !torch.list<int>, !torch.list<int>, !torch.bool, !torch.list<int>, !torch.int -> !torch.vtensor<[2,320,128,128],f16>
    %int1_15203 = torch.constant.int 1
    %13536 = torch.aten.add.Tensor %13535, %13530, %int1_15203 : !torch.vtensor<[2,320,128,128],f16>, !torch.vtensor<[2,320,128,128],f16>, !torch.int -> !torch.vtensor<[2,320,128,128],f16>
    %13537 = torch.prim.ListConstruct %13536, %1823 : (!torch.vtensor<[2,320,128,128],f16>, !torch.vtensor<[2,320,128,128],f16>) -> !torch.list<vtensor>
    %int1_15204 = torch.constant.int 1
    %13538 = torch.aten.cat %13537, %int1_15204 : !torch.list<vtensor>, !torch.int -> !torch.vtensor<[2,640,128,128],f16>
    %int2_15205 = torch.constant.int 2
    %int32_15206 = torch.constant.int 32
    %int20_15207 = torch.constant.int 20
    %int16384_15208 = torch.constant.int 16384
    %13539 = torch.prim.ListConstruct %int2_15205, %int32_15206, %int20_15207, %int16384_15208 : (!torch.int, !torch.int, !torch.int, !torch.int) -> !torch.list<int>
    %13540 = torch.aten.view %13538, %13539 : !torch.vtensor<[2,640,128,128],f16>, !torch.list<int> -> !torch.vtensor<[2,32,20,16384],f16>
    %int6_15209 = torch.constant.int 6
    %13541 = torch.prims.convert_element_type %13540, %int6_15209 : !torch.vtensor<[2,32,20,16384],f16>, !torch.int -> !torch.vtensor<[2,32,20,16384],f32>
    %int2_15210 = torch.constant.int 2
    %int3_15211 = torch.constant.int 3
    %13542 = torch.prim.ListConstruct %int2_15210, %int3_15211 : (!torch.int, !torch.int) -> !torch.list<int>
    %int0_15212 = torch.constant.int 0
    %true_15213 = torch.constant.bool true
    %result0_15214, %result1_15215 = torch.aten.var_mean.correction %13541, %13542, %int0_15212, %true_15213 : !torch.vtensor<[2,32,20,16384],f32>, !torch.list<int>, !torch.int, !torch.bool -> !torch.vtensor<[2,32,1,1],f32>, !torch.vtensor<[2,32,1,1],f32>
    %float1.000000e-05_15216 = torch.constant.float 1.000000e-05
    %int1_15217 = torch.constant.int 1
    %13543 = torch.aten.add.Scalar %result0_15214, %float1.000000e-05_15216, %int1_15217 : !torch.vtensor<[2,32,1,1],f32>, !torch.float, !torch.int -> !torch.vtensor<[2,32,1,1],f32>
    %13544 = torch.aten.rsqrt %13543 : !torch.vtensor<[2,32,1,1],f32> -> !torch.vtensor<[2,32,1,1],f32>
    %int1_15218 = torch.constant.int 1
    %13545 = torch.aten.sub.Tensor %13540, %result1_15215, %int1_15218 : !torch.vtensor<[2,32,20,16384],f16>, !torch.vtensor<[2,32,1,1],f32>, !torch.int -> !torch.vtensor<[2,32,20,16384],f32>
    %13546 = torch.aten.mul.Tensor %13545, %13544 : !torch.vtensor<[2,32,20,16384],f32>, !torch.vtensor<[2,32,1,1],f32> -> !torch.vtensor<[2,32,20,16384],f32>
    %int2_15219 = torch.constant.int 2
    %int640_15220 = torch.constant.int 640
    %int128_15221 = torch.constant.int 128
    %int128_15222 = torch.constant.int 128
    %13547 = torch.prim.ListConstruct %int2_15219, %int640_15220, %int128_15221, %int128_15222 : (!torch.int, !torch.int, !torch.int, !torch.int) -> !torch.list<int>
    %13548 = torch.aten.view %13546, %13547 : !torch.vtensor<[2,32,20,16384],f32>, !torch.list<int> -> !torch.vtensor<[2,640,128,128],f32>
    %int0_15223 = torch.constant.int 0
    %13549 = torch.aten.unsqueeze %1653, %int0_15223 : !torch.vtensor<[640],f16>, !torch.int -> !torch.vtensor<[1,640],f16>
    %int2_15224 = torch.constant.int 2
    %13550 = torch.aten.unsqueeze %13549, %int2_15224 : !torch.vtensor<[1,640],f16>, !torch.int -> !torch.vtensor<[1,640,1],f16>
    %int3_15225 = torch.constant.int 3
    %13551 = torch.aten.unsqueeze %13550, %int3_15225 : !torch.vtensor<[1,640,1],f16>, !torch.int -> !torch.vtensor<[1,640,1,1],f16>
    %int0_15226 = torch.constant.int 0
    %13552 = torch.aten.unsqueeze %1652, %int0_15226 : !torch.vtensor<[640],f16>, !torch.int -> !torch.vtensor<[1,640],f16>
    %int2_15227 = torch.constant.int 2
    %13553 = torch.aten.unsqueeze %13552, %int2_15227 : !torch.vtensor<[1,640],f16>, !torch.int -> !torch.vtensor<[1,640,1],f16>
    %int3_15228 = torch.constant.int 3
    %13554 = torch.aten.unsqueeze %13553, %int3_15228 : !torch.vtensor<[1,640,1],f16>, !torch.int -> !torch.vtensor<[1,640,1,1],f16>
    %13555 = torch.aten.mul.Tensor %13548, %13554 : !torch.vtensor<[2,640,128,128],f32>, !torch.vtensor<[1,640,1,1],f16> -> !torch.vtensor<[2,640,128,128],f32>
    %int1_15229 = torch.constant.int 1
    %13556 = torch.aten.add.Tensor %13555, %13551, %int1_15229 : !torch.vtensor<[2,640,128,128],f32>, !torch.vtensor<[1,640,1,1],f16>, !torch.int -> !torch.vtensor<[2,640,128,128],f32>
    %int5_15230 = torch.constant.int 5
    %13557 = torch.prims.convert_element_type %13556, %int5_15230 : !torch.vtensor<[2,640,128,128],f32>, !torch.int -> !torch.vtensor<[2,640,128,128],f16>
    %13558 = torch.aten.silu %13557 : !torch.vtensor<[2,640,128,128],f16> -> !torch.vtensor<[2,640,128,128],f16>
    %int1_15231 = torch.constant.int 1
    %int1_15232 = torch.constant.int 1
    %13559 = torch.prim.ListConstruct %int1_15231, %int1_15232 : (!torch.int, !torch.int) -> !torch.list<int>
    %int1_15233 = torch.constant.int 1
    %int1_15234 = torch.constant.int 1
    %13560 = torch.prim.ListConstruct %int1_15233, %int1_15234 : (!torch.int, !torch.int) -> !torch.list<int>
    %int1_15235 = torch.constant.int 1
    %int1_15236 = torch.constant.int 1
    %13561 = torch.prim.ListConstruct %int1_15235, %int1_15236 : (!torch.int, !torch.int) -> !torch.list<int>
    %false_15237 = torch.constant.bool false
    %int0_15238 = torch.constant.int 0
    %int0_15239 = torch.constant.int 0
    %13562 = torch.prim.ListConstruct %int0_15238, %int0_15239 : (!torch.int, !torch.int) -> !torch.list<int>
    %int1_15240 = torch.constant.int 1
    %13563 = torch.aten.convolution %13558, %1654, %1655, %13559, %13560, %13561, %false_15237, %13562, %int1_15240 : !torch.vtensor<[2,640,128,128],f16>, !torch.vtensor<[320,640,3,3],f16>, !torch.vtensor<[320],f16>, !torch.list<int>, !torch.list<int>, !torch.list<int>, !torch.bool, !torch.list<int>, !torch.int -> !torch.vtensor<[2,320,128,128],f16>
    %13564 = torch.aten.silu %1756 : !torch.vtensor<[2,1280],f16> -> !torch.vtensor<[2,1280],f16>
    %int1_15241 = torch.constant.int 1
    %int0_15242 = torch.constant.int 0
    %13565 = torch.prim.ListConstruct %int1_15241, %int0_15242 : (!torch.int, !torch.int) -> !torch.list<int>
    %13566 = torch.aten.permute %1656, %13565 : !torch.vtensor<[320,1280],f16>, !torch.list<int> -> !torch.vtensor<[1280,320],f16>
    %int5_15243 = torch.constant.int 5
    %13567 = torch.prims.convert_element_type %13566, %int5_15243 : !torch.vtensor<[1280,320],f16>, !torch.int -> !torch.vtensor<[1280,320],f16>
    %13568 = torch.aten.mm %13564, %13567 : !torch.vtensor<[2,1280],f16>, !torch.vtensor<[1280,320],f16> -> !torch.vtensor<[2,320],f16>
    %int1_15244 = torch.constant.int 1
    %13569 = torch.aten.add.Tensor %13568, %1657, %int1_15244 : !torch.vtensor<[2,320],f16>, !torch.vtensor<[320],f16>, !torch.int -> !torch.vtensor<[2,320],f16>
    %int0_15245 = torch.constant.int 0
    %int0_15246 = torch.constant.int 0
    %int9223372036854775807_15247 = torch.constant.int 9223372036854775807
    %int1_15248 = torch.constant.int 1
    %13570 = torch.aten.slice.Tensor %13569, %int0_15245, %int0_15246, %int9223372036854775807_15247, %int1_15248 : !torch.vtensor<[2,320],f16>, !torch.int, !torch.int, !torch.int, !torch.int -> !torch.vtensor<[2,320],f16>
    %int1_15249 = torch.constant.int 1
    %int0_15250 = torch.constant.int 0
    %int9223372036854775807_15251 = torch.constant.int 9223372036854775807
    %int1_15252 = torch.constant.int 1
    %13571 = torch.aten.slice.Tensor %13570, %int1_15249, %int0_15250, %int9223372036854775807_15251, %int1_15252 : !torch.vtensor<[2,320],f16>, !torch.int, !torch.int, !torch.int, !torch.int -> !torch.vtensor<[2,320],f16>
    %int2_15253 = torch.constant.int 2
    %13572 = torch.aten.unsqueeze %13571, %int2_15253 : !torch.vtensor<[2,320],f16>, !torch.int -> !torch.vtensor<[2,320,1],f16>
    %int3_15254 = torch.constant.int 3
    %13573 = torch.aten.unsqueeze %13572, %int3_15254 : !torch.vtensor<[2,320,1],f16>, !torch.int -> !torch.vtensor<[2,320,1,1],f16>
    %int1_15255 = torch.constant.int 1
    %13574 = torch.aten.add.Tensor %13563, %13573, %int1_15255 : !torch.vtensor<[2,320,128,128],f16>, !torch.vtensor<[2,320,1,1],f16>, !torch.int -> !torch.vtensor<[2,320,128,128],f16>
    %int2_15256 = torch.constant.int 2
    %int32_15257 = torch.constant.int 32
    %int10_15258 = torch.constant.int 10
    %int16384_15259 = torch.constant.int 16384
    %13575 = torch.prim.ListConstruct %int2_15256, %int32_15257, %int10_15258, %int16384_15259 : (!torch.int, !torch.int, !torch.int, !torch.int) -> !torch.list<int>
    %13576 = torch.aten.view %13574, %13575 : !torch.vtensor<[2,320,128,128],f16>, !torch.list<int> -> !torch.vtensor<[2,32,10,16384],f16>
    %int6_15260 = torch.constant.int 6
    %13577 = torch.prims.convert_element_type %13576, %int6_15260 : !torch.vtensor<[2,32,10,16384],f16>, !torch.int -> !torch.vtensor<[2,32,10,16384],f32>
    %int2_15261 = torch.constant.int 2
    %int3_15262 = torch.constant.int 3
    %13578 = torch.prim.ListConstruct %int2_15261, %int3_15262 : (!torch.int, !torch.int) -> !torch.list<int>
    %int0_15263 = torch.constant.int 0
    %true_15264 = torch.constant.bool true
    %result0_15265, %result1_15266 = torch.aten.var_mean.correction %13577, %13578, %int0_15263, %true_15264 : !torch.vtensor<[2,32,10,16384],f32>, !torch.list<int>, !torch.int, !torch.bool -> !torch.vtensor<[2,32,1,1],f32>, !torch.vtensor<[2,32,1,1],f32>
    %float1.000000e-05_15267 = torch.constant.float 1.000000e-05
    %int1_15268 = torch.constant.int 1
    %13579 = torch.aten.add.Scalar %result0_15265, %float1.000000e-05_15267, %int1_15268 : !torch.vtensor<[2,32,1,1],f32>, !torch.float, !torch.int -> !torch.vtensor<[2,32,1,1],f32>
    %13580 = torch.aten.rsqrt %13579 : !torch.vtensor<[2,32,1,1],f32> -> !torch.vtensor<[2,32,1,1],f32>
    %int1_15269 = torch.constant.int 1
    %13581 = torch.aten.sub.Tensor %13576, %result1_15266, %int1_15269 : !torch.vtensor<[2,32,10,16384],f16>, !torch.vtensor<[2,32,1,1],f32>, !torch.int -> !torch.vtensor<[2,32,10,16384],f32>
    %13582 = torch.aten.mul.Tensor %13581, %13580 : !torch.vtensor<[2,32,10,16384],f32>, !torch.vtensor<[2,32,1,1],f32> -> !torch.vtensor<[2,32,10,16384],f32>
    %int2_15270 = torch.constant.int 2
    %int320_15271 = torch.constant.int 320
    %int128_15272 = torch.constant.int 128
    %int128_15273 = torch.constant.int 128
    %13583 = torch.prim.ListConstruct %int2_15270, %int320_15271, %int128_15272, %int128_15273 : (!torch.int, !torch.int, !torch.int, !torch.int) -> !torch.list<int>
    %13584 = torch.aten.view %13582, %13583 : !torch.vtensor<[2,32,10,16384],f32>, !torch.list<int> -> !torch.vtensor<[2,320,128,128],f32>
    %int0_15274 = torch.constant.int 0
    %13585 = torch.aten.unsqueeze %1659, %int0_15274 : !torch.vtensor<[320],f16>, !torch.int -> !torch.vtensor<[1,320],f16>
    %int2_15275 = torch.constant.int 2
    %13586 = torch.aten.unsqueeze %13585, %int2_15275 : !torch.vtensor<[1,320],f16>, !torch.int -> !torch.vtensor<[1,320,1],f16>
    %int3_15276 = torch.constant.int 3
    %13587 = torch.aten.unsqueeze %13586, %int3_15276 : !torch.vtensor<[1,320,1],f16>, !torch.int -> !torch.vtensor<[1,320,1,1],f16>
    %int0_15277 = torch.constant.int 0
    %13588 = torch.aten.unsqueeze %1658, %int0_15277 : !torch.vtensor<[320],f16>, !torch.int -> !torch.vtensor<[1,320],f16>
    %int2_15278 = torch.constant.int 2
    %13589 = torch.aten.unsqueeze %13588, %int2_15278 : !torch.vtensor<[1,320],f16>, !torch.int -> !torch.vtensor<[1,320,1],f16>
    %int3_15279 = torch.constant.int 3
    %13590 = torch.aten.unsqueeze %13589, %int3_15279 : !torch.vtensor<[1,320,1],f16>, !torch.int -> !torch.vtensor<[1,320,1,1],f16>
    %13591 = torch.aten.mul.Tensor %13584, %13590 : !torch.vtensor<[2,320,128,128],f32>, !torch.vtensor<[1,320,1,1],f16> -> !torch.vtensor<[2,320,128,128],f32>
    %int1_15280 = torch.constant.int 1
    %13592 = torch.aten.add.Tensor %13591, %13587, %int1_15280 : !torch.vtensor<[2,320,128,128],f32>, !torch.vtensor<[1,320,1,1],f16>, !torch.int -> !torch.vtensor<[2,320,128,128],f32>
    %int5_15281 = torch.constant.int 5
    %13593 = torch.prims.convert_element_type %13592, %int5_15281 : !torch.vtensor<[2,320,128,128],f32>, !torch.int -> !torch.vtensor<[2,320,128,128],f16>
    %13594 = torch.aten.silu %13593 : !torch.vtensor<[2,320,128,128],f16> -> !torch.vtensor<[2,320,128,128],f16>
    %int1_15282 = torch.constant.int 1
    %int1_15283 = torch.constant.int 1
    %13595 = torch.prim.ListConstruct %int1_15282, %int1_15283 : (!torch.int, !torch.int) -> !torch.list<int>
    %int1_15284 = torch.constant.int 1
    %int1_15285 = torch.constant.int 1
    %13596 = torch.prim.ListConstruct %int1_15284, %int1_15285 : (!torch.int, !torch.int) -> !torch.list<int>
    %int1_15286 = torch.constant.int 1
    %int1_15287 = torch.constant.int 1
    %13597 = torch.prim.ListConstruct %int1_15286, %int1_15287 : (!torch.int, !torch.int) -> !torch.list<int>
    %false_15288 = torch.constant.bool false
    %int0_15289 = torch.constant.int 0
    %int0_15290 = torch.constant.int 0
    %13598 = torch.prim.ListConstruct %int0_15289, %int0_15290 : (!torch.int, !torch.int) -> !torch.list<int>
    %int1_15291 = torch.constant.int 1
    %13599 = torch.aten.convolution %13594, %1660, %1661, %13595, %13596, %13597, %false_15288, %13598, %int1_15291 : !torch.vtensor<[2,320,128,128],f16>, !torch.vtensor<[320,320,3,3],f16>, !torch.vtensor<[320],f16>, !torch.list<int>, !torch.list<int>, !torch.list<int>, !torch.bool, !torch.list<int>, !torch.int -> !torch.vtensor<[2,320,128,128],f16>
    %int1_15292 = torch.constant.int 1
    %int1_15293 = torch.constant.int 1
    %13600 = torch.prim.ListConstruct %int1_15292, %int1_15293 : (!torch.int, !torch.int) -> !torch.list<int>
    %int0_15294 = torch.constant.int 0
    %int0_15295 = torch.constant.int 0
    %13601 = torch.prim.ListConstruct %int0_15294, %int0_15295 : (!torch.int, !torch.int) -> !torch.list<int>
    %int1_15296 = torch.constant.int 1
    %int1_15297 = torch.constant.int 1
    %13602 = torch.prim.ListConstruct %int1_15296, %int1_15297 : (!torch.int, !torch.int) -> !torch.list<int>
    %false_15298 = torch.constant.bool false
    %int0_15299 = torch.constant.int 0
    %int0_15300 = torch.constant.int 0
    %13603 = torch.prim.ListConstruct %int0_15299, %int0_15300 : (!torch.int, !torch.int) -> !torch.list<int>
    %int1_15301 = torch.constant.int 1
    %13604 = torch.aten.convolution %13538, %1662, %1663, %13600, %13601, %13602, %false_15298, %13603, %int1_15301 : !torch.vtensor<[2,640,128,128],f16>, !torch.vtensor<[320,640,1,1],f16>, !torch.vtensor<[320],f16>, !torch.list<int>, !torch.list<int>, !torch.list<int>, !torch.bool, !torch.list<int>, !torch.int -> !torch.vtensor<[2,320,128,128],f16>
    %int1_15302 = torch.constant.int 1
    %13605 = torch.aten.add.Tensor %13604, %13599, %int1_15302 : !torch.vtensor<[2,320,128,128],f16>, !torch.vtensor<[2,320,128,128],f16>, !torch.int -> !torch.vtensor<[2,320,128,128],f16>
    %13606 = torch.prim.ListConstruct %13605, %1761 : (!torch.vtensor<[2,320,128,128],f16>, !torch.vtensor<[2,320,128,128],f16>) -> !torch.list<vtensor>
    %int1_15303 = torch.constant.int 1
    %13607 = torch.aten.cat %13606, %int1_15303 : !torch.list<vtensor>, !torch.int -> !torch.vtensor<[2,640,128,128],f16>
    %int2_15304 = torch.constant.int 2
    %int32_15305 = torch.constant.int 32
    %int20_15306 = torch.constant.int 20
    %int16384_15307 = torch.constant.int 16384
    %13608 = torch.prim.ListConstruct %int2_15304, %int32_15305, %int20_15306, %int16384_15307 : (!torch.int, !torch.int, !torch.int, !torch.int) -> !torch.list<int>
    %13609 = torch.aten.view %13607, %13608 : !torch.vtensor<[2,640,128,128],f16>, !torch.list<int> -> !torch.vtensor<[2,32,20,16384],f16>
    %int6_15308 = torch.constant.int 6
    %13610 = torch.prims.convert_element_type %13609, %int6_15308 : !torch.vtensor<[2,32,20,16384],f16>, !torch.int -> !torch.vtensor<[2,32,20,16384],f32>
    %int2_15309 = torch.constant.int 2
    %int3_15310 = torch.constant.int 3
    %13611 = torch.prim.ListConstruct %int2_15309, %int3_15310 : (!torch.int, !torch.int) -> !torch.list<int>
    %int0_15311 = torch.constant.int 0
    %true_15312 = torch.constant.bool true
    %result0_15313, %result1_15314 = torch.aten.var_mean.correction %13610, %13611, %int0_15311, %true_15312 : !torch.vtensor<[2,32,20,16384],f32>, !torch.list<int>, !torch.int, !torch.bool -> !torch.vtensor<[2,32,1,1],f32>, !torch.vtensor<[2,32,1,1],f32>
    %float1.000000e-05_15315 = torch.constant.float 1.000000e-05
    %int1_15316 = torch.constant.int 1
    %13612 = torch.aten.add.Scalar %result0_15313, %float1.000000e-05_15315, %int1_15316 : !torch.vtensor<[2,32,1,1],f32>, !torch.float, !torch.int -> !torch.vtensor<[2,32,1,1],f32>
    %13613 = torch.aten.rsqrt %13612 : !torch.vtensor<[2,32,1,1],f32> -> !torch.vtensor<[2,32,1,1],f32>
    %int1_15317 = torch.constant.int 1
    %13614 = torch.aten.sub.Tensor %13609, %result1_15314, %int1_15317 : !torch.vtensor<[2,32,20,16384],f16>, !torch.vtensor<[2,32,1,1],f32>, !torch.int -> !torch.vtensor<[2,32,20,16384],f32>
    %13615 = torch.aten.mul.Tensor %13614, %13613 : !torch.vtensor<[2,32,20,16384],f32>, !torch.vtensor<[2,32,1,1],f32> -> !torch.vtensor<[2,32,20,16384],f32>
    %int2_15318 = torch.constant.int 2
    %int640_15319 = torch.constant.int 640
    %int128_15320 = torch.constant.int 128
    %int128_15321 = torch.constant.int 128
    %13616 = torch.prim.ListConstruct %int2_15318, %int640_15319, %int128_15320, %int128_15321 : (!torch.int, !torch.int, !torch.int, !torch.int) -> !torch.list<int>
    %13617 = torch.aten.view %13615, %13616 : !torch.vtensor<[2,32,20,16384],f32>, !torch.list<int> -> !torch.vtensor<[2,640,128,128],f32>
    %int0_15322 = torch.constant.int 0
    %13618 = torch.aten.unsqueeze %1665, %int0_15322 : !torch.vtensor<[640],f16>, !torch.int -> !torch.vtensor<[1,640],f16>
    %int2_15323 = torch.constant.int 2
    %13619 = torch.aten.unsqueeze %13618, %int2_15323 : !torch.vtensor<[1,640],f16>, !torch.int -> !torch.vtensor<[1,640,1],f16>
    %int3_15324 = torch.constant.int 3
    %13620 = torch.aten.unsqueeze %13619, %int3_15324 : !torch.vtensor<[1,640,1],f16>, !torch.int -> !torch.vtensor<[1,640,1,1],f16>
    %int0_15325 = torch.constant.int 0
    %13621 = torch.aten.unsqueeze %1664, %int0_15325 : !torch.vtensor<[640],f16>, !torch.int -> !torch.vtensor<[1,640],f16>
    %int2_15326 = torch.constant.int 2
    %13622 = torch.aten.unsqueeze %13621, %int2_15326 : !torch.vtensor<[1,640],f16>, !torch.int -> !torch.vtensor<[1,640,1],f16>
    %int3_15327 = torch.constant.int 3
    %13623 = torch.aten.unsqueeze %13622, %int3_15327 : !torch.vtensor<[1,640,1],f16>, !torch.int -> !torch.vtensor<[1,640,1,1],f16>
    %13624 = torch.aten.mul.Tensor %13617, %13623 : !torch.vtensor<[2,640,128,128],f32>, !torch.vtensor<[1,640,1,1],f16> -> !torch.vtensor<[2,640,128,128],f32>
    %int1_15328 = torch.constant.int 1
    %13625 = torch.aten.add.Tensor %13624, %13620, %int1_15328 : !torch.vtensor<[2,640,128,128],f32>, !torch.vtensor<[1,640,1,1],f16>, !torch.int -> !torch.vtensor<[2,640,128,128],f32>
    %int5_15329 = torch.constant.int 5
    %13626 = torch.prims.convert_element_type %13625, %int5_15329 : !torch.vtensor<[2,640,128,128],f32>, !torch.int -> !torch.vtensor<[2,640,128,128],f16>
    %13627 = torch.aten.silu %13626 : !torch.vtensor<[2,640,128,128],f16> -> !torch.vtensor<[2,640,128,128],f16>
    %int1_15330 = torch.constant.int 1
    %int1_15331 = torch.constant.int 1
    %13628 = torch.prim.ListConstruct %int1_15330, %int1_15331 : (!torch.int, !torch.int) -> !torch.list<int>
    %int1_15332 = torch.constant.int 1
    %int1_15333 = torch.constant.int 1
    %13629 = torch.prim.ListConstruct %int1_15332, %int1_15333 : (!torch.int, !torch.int) -> !torch.list<int>
    %int1_15334 = torch.constant.int 1
    %int1_15335 = torch.constant.int 1
    %13630 = torch.prim.ListConstruct %int1_15334, %int1_15335 : (!torch.int, !torch.int) -> !torch.list<int>
    %false_15336 = torch.constant.bool false
    %int0_15337 = torch.constant.int 0
    %int0_15338 = torch.constant.int 0
    %13631 = torch.prim.ListConstruct %int0_15337, %int0_15338 : (!torch.int, !torch.int) -> !torch.list<int>
    %int1_15339 = torch.constant.int 1
    %13632 = torch.aten.convolution %13627, %1666, %1667, %13628, %13629, %13630, %false_15336, %13631, %int1_15339 : !torch.vtensor<[2,640,128,128],f16>, !torch.vtensor<[320,640,3,3],f16>, !torch.vtensor<[320],f16>, !torch.list<int>, !torch.list<int>, !torch.list<int>, !torch.bool, !torch.list<int>, !torch.int -> !torch.vtensor<[2,320,128,128],f16>
    %13633 = torch.aten.silu %1756 : !torch.vtensor<[2,1280],f16> -> !torch.vtensor<[2,1280],f16>
    %int1_15340 = torch.constant.int 1
    %int0_15341 = torch.constant.int 0
    %13634 = torch.prim.ListConstruct %int1_15340, %int0_15341 : (!torch.int, !torch.int) -> !torch.list<int>
    %13635 = torch.aten.permute %1668, %13634 : !torch.vtensor<[320,1280],f16>, !torch.list<int> -> !torch.vtensor<[1280,320],f16>
    %int5_15342 = torch.constant.int 5
    %13636 = torch.prims.convert_element_type %13635, %int5_15342 : !torch.vtensor<[1280,320],f16>, !torch.int -> !torch.vtensor<[1280,320],f16>
    %13637 = torch.aten.mm %13633, %13636 : !torch.vtensor<[2,1280],f16>, !torch.vtensor<[1280,320],f16> -> !torch.vtensor<[2,320],f16>
    %int1_15343 = torch.constant.int 1
    %13638 = torch.aten.add.Tensor %13637, %1669, %int1_15343 : !torch.vtensor<[2,320],f16>, !torch.vtensor<[320],f16>, !torch.int -> !torch.vtensor<[2,320],f16>
    %int0_15344 = torch.constant.int 0
    %int0_15345 = torch.constant.int 0
    %int9223372036854775807_15346 = torch.constant.int 9223372036854775807
    %int1_15347 = torch.constant.int 1
    %13639 = torch.aten.slice.Tensor %13638, %int0_15344, %int0_15345, %int9223372036854775807_15346, %int1_15347 : !torch.vtensor<[2,320],f16>, !torch.int, !torch.int, !torch.int, !torch.int -> !torch.vtensor<[2,320],f16>
    %int1_15348 = torch.constant.int 1
    %int0_15349 = torch.constant.int 0
    %int9223372036854775807_15350 = torch.constant.int 9223372036854775807
    %int1_15351 = torch.constant.int 1
    %13640 = torch.aten.slice.Tensor %13639, %int1_15348, %int0_15349, %int9223372036854775807_15350, %int1_15351 : !torch.vtensor<[2,320],f16>, !torch.int, !torch.int, !torch.int, !torch.int -> !torch.vtensor<[2,320],f16>
    %int2_15352 = torch.constant.int 2
    %13641 = torch.aten.unsqueeze %13640, %int2_15352 : !torch.vtensor<[2,320],f16>, !torch.int -> !torch.vtensor<[2,320,1],f16>
    %int3_15353 = torch.constant.int 3
    %13642 = torch.aten.unsqueeze %13641, %int3_15353 : !torch.vtensor<[2,320,1],f16>, !torch.int -> !torch.vtensor<[2,320,1,1],f16>
    %int1_15354 = torch.constant.int 1
    %13643 = torch.aten.add.Tensor %13632, %13642, %int1_15354 : !torch.vtensor<[2,320,128,128],f16>, !torch.vtensor<[2,320,1,1],f16>, !torch.int -> !torch.vtensor<[2,320,128,128],f16>
    %int2_15355 = torch.constant.int 2
    %int32_15356 = torch.constant.int 32
    %int10_15357 = torch.constant.int 10
    %int16384_15358 = torch.constant.int 16384
    %13644 = torch.prim.ListConstruct %int2_15355, %int32_15356, %int10_15357, %int16384_15358 : (!torch.int, !torch.int, !torch.int, !torch.int) -> !torch.list<int>
    %13645 = torch.aten.view %13643, %13644 : !torch.vtensor<[2,320,128,128],f16>, !torch.list<int> -> !torch.vtensor<[2,32,10,16384],f16>
    %int6_15359 = torch.constant.int 6
    %13646 = torch.prims.convert_element_type %13645, %int6_15359 : !torch.vtensor<[2,32,10,16384],f16>, !torch.int -> !torch.vtensor<[2,32,10,16384],f32>
    %int2_15360 = torch.constant.int 2
    %int3_15361 = torch.constant.int 3
    %13647 = torch.prim.ListConstruct %int2_15360, %int3_15361 : (!torch.int, !torch.int) -> !torch.list<int>
    %int0_15362 = torch.constant.int 0
    %true_15363 = torch.constant.bool true
    %result0_15364, %result1_15365 = torch.aten.var_mean.correction %13646, %13647, %int0_15362, %true_15363 : !torch.vtensor<[2,32,10,16384],f32>, !torch.list<int>, !torch.int, !torch.bool -> !torch.vtensor<[2,32,1,1],f32>, !torch.vtensor<[2,32,1,1],f32>
    %float1.000000e-05_15366 = torch.constant.float 1.000000e-05
    %int1_15367 = torch.constant.int 1
    %13648 = torch.aten.add.Scalar %result0_15364, %float1.000000e-05_15366, %int1_15367 : !torch.vtensor<[2,32,1,1],f32>, !torch.float, !torch.int -> !torch.vtensor<[2,32,1,1],f32>
    %13649 = torch.aten.rsqrt %13648 : !torch.vtensor<[2,32,1,1],f32> -> !torch.vtensor<[2,32,1,1],f32>
    %int1_15368 = torch.constant.int 1
    %13650 = torch.aten.sub.Tensor %13645, %result1_15365, %int1_15368 : !torch.vtensor<[2,32,10,16384],f16>, !torch.vtensor<[2,32,1,1],f32>, !torch.int -> !torch.vtensor<[2,32,10,16384],f32>
    %13651 = torch.aten.mul.Tensor %13650, %13649 : !torch.vtensor<[2,32,10,16384],f32>, !torch.vtensor<[2,32,1,1],f32> -> !torch.vtensor<[2,32,10,16384],f32>
    %int2_15369 = torch.constant.int 2
    %int320_15370 = torch.constant.int 320
    %int128_15371 = torch.constant.int 128
    %int128_15372 = torch.constant.int 128
    %13652 = torch.prim.ListConstruct %int2_15369, %int320_15370, %int128_15371, %int128_15372 : (!torch.int, !torch.int, !torch.int, !torch.int) -> !torch.list<int>
    %13653 = torch.aten.view %13651, %13652 : !torch.vtensor<[2,32,10,16384],f32>, !torch.list<int> -> !torch.vtensor<[2,320,128,128],f32>
    %int0_15373 = torch.constant.int 0
    %13654 = torch.aten.unsqueeze %1671, %int0_15373 : !torch.vtensor<[320],f16>, !torch.int -> !torch.vtensor<[1,320],f16>
    %int2_15374 = torch.constant.int 2
    %13655 = torch.aten.unsqueeze %13654, %int2_15374 : !torch.vtensor<[1,320],f16>, !torch.int -> !torch.vtensor<[1,320,1],f16>
    %int3_15375 = torch.constant.int 3
    %13656 = torch.aten.unsqueeze %13655, %int3_15375 : !torch.vtensor<[1,320,1],f16>, !torch.int -> !torch.vtensor<[1,320,1,1],f16>
    %int0_15376 = torch.constant.int 0
    %13657 = torch.aten.unsqueeze %1670, %int0_15376 : !torch.vtensor<[320],f16>, !torch.int -> !torch.vtensor<[1,320],f16>
    %int2_15377 = torch.constant.int 2
    %13658 = torch.aten.unsqueeze %13657, %int2_15377 : !torch.vtensor<[1,320],f16>, !torch.int -> !torch.vtensor<[1,320,1],f16>
    %int3_15378 = torch.constant.int 3
    %13659 = torch.aten.unsqueeze %13658, %int3_15378 : !torch.vtensor<[1,320,1],f16>, !torch.int -> !torch.vtensor<[1,320,1,1],f16>
    %13660 = torch.aten.mul.Tensor %13653, %13659 : !torch.vtensor<[2,320,128,128],f32>, !torch.vtensor<[1,320,1,1],f16> -> !torch.vtensor<[2,320,128,128],f32>
    %int1_15379 = torch.constant.int 1
    %13661 = torch.aten.add.Tensor %13660, %13656, %int1_15379 : !torch.vtensor<[2,320,128,128],f32>, !torch.vtensor<[1,320,1,1],f16>, !torch.int -> !torch.vtensor<[2,320,128,128],f32>
    %int5_15380 = torch.constant.int 5
    %13662 = torch.prims.convert_element_type %13661, %int5_15380 : !torch.vtensor<[2,320,128,128],f32>, !torch.int -> !torch.vtensor<[2,320,128,128],f16>
    %13663 = torch.aten.silu %13662 : !torch.vtensor<[2,320,128,128],f16> -> !torch.vtensor<[2,320,128,128],f16>
    %int1_15381 = torch.constant.int 1
    %int1_15382 = torch.constant.int 1
    %13664 = torch.prim.ListConstruct %int1_15381, %int1_15382 : (!torch.int, !torch.int) -> !torch.list<int>
    %int1_15383 = torch.constant.int 1
    %int1_15384 = torch.constant.int 1
    %13665 = torch.prim.ListConstruct %int1_15383, %int1_15384 : (!torch.int, !torch.int) -> !torch.list<int>
    %int1_15385 = torch.constant.int 1
    %int1_15386 = torch.constant.int 1
    %13666 = torch.prim.ListConstruct %int1_15385, %int1_15386 : (!torch.int, !torch.int) -> !torch.list<int>
    %false_15387 = torch.constant.bool false
    %int0_15388 = torch.constant.int 0
    %int0_15389 = torch.constant.int 0
    %13667 = torch.prim.ListConstruct %int0_15388, %int0_15389 : (!torch.int, !torch.int) -> !torch.list<int>
    %int1_15390 = torch.constant.int 1
    %13668 = torch.aten.convolution %13663, %1672, %1673, %13664, %13665, %13666, %false_15387, %13667, %int1_15390 : !torch.vtensor<[2,320,128,128],f16>, !torch.vtensor<[320,320,3,3],f16>, !torch.vtensor<[320],f16>, !torch.list<int>, !torch.list<int>, !torch.list<int>, !torch.bool, !torch.list<int>, !torch.int -> !torch.vtensor<[2,320,128,128],f16>
    %int1_15391 = torch.constant.int 1
    %int1_15392 = torch.constant.int 1
    %13669 = torch.prim.ListConstruct %int1_15391, %int1_15392 : (!torch.int, !torch.int) -> !torch.list<int>
    %int0_15393 = torch.constant.int 0
    %int0_15394 = torch.constant.int 0
    %13670 = torch.prim.ListConstruct %int0_15393, %int0_15394 : (!torch.int, !torch.int) -> !torch.list<int>
    %int1_15395 = torch.constant.int 1
    %int1_15396 = torch.constant.int 1
    %13671 = torch.prim.ListConstruct %int1_15395, %int1_15396 : (!torch.int, !torch.int) -> !torch.list<int>
    %false_15397 = torch.constant.bool false
    %int0_15398 = torch.constant.int 0
    %int0_15399 = torch.constant.int 0
    %13672 = torch.prim.ListConstruct %int0_15398, %int0_15399 : (!torch.int, !torch.int) -> !torch.list<int>
    %int1_15400 = torch.constant.int 1
    %13673 = torch.aten.convolution %13607, %1674, %1675, %13669, %13670, %13671, %false_15397, %13672, %int1_15400 : !torch.vtensor<[2,640,128,128],f16>, !torch.vtensor<[320,640,1,1],f16>, !torch.vtensor<[320],f16>, !torch.list<int>, !torch.list<int>, !torch.list<int>, !torch.bool, !torch.list<int>, !torch.int -> !torch.vtensor<[2,320,128,128],f16>
    %int1_15401 = torch.constant.int 1
    %13674 = torch.aten.add.Tensor %13673, %13668, %int1_15401 : !torch.vtensor<[2,320,128,128],f16>, !torch.vtensor<[2,320,128,128],f16>, !torch.int -> !torch.vtensor<[2,320,128,128],f16>
    %int2_15402 = torch.constant.int 2
    %int32_15403 = torch.constant.int 32
    %int10_15404 = torch.constant.int 10
    %int16384_15405 = torch.constant.int 16384
    %13675 = torch.prim.ListConstruct %int2_15402, %int32_15403, %int10_15404, %int16384_15405 : (!torch.int, !torch.int, !torch.int, !torch.int) -> !torch.list<int>
    %13676 = torch.aten.view %13674, %13675 : !torch.vtensor<[2,320,128,128],f16>, !torch.list<int> -> !torch.vtensor<[2,32,10,16384],f16>
    %int6_15406 = torch.constant.int 6
    %13677 = torch.prims.convert_element_type %13676, %int6_15406 : !torch.vtensor<[2,32,10,16384],f16>, !torch.int -> !torch.vtensor<[2,32,10,16384],f32>
    %int2_15407 = torch.constant.int 2
    %int3_15408 = torch.constant.int 3
    %13678 = torch.prim.ListConstruct %int2_15407, %int3_15408 : (!torch.int, !torch.int) -> !torch.list<int>
    %int0_15409 = torch.constant.int 0
    %true_15410 = torch.constant.bool true
    %result0_15411, %result1_15412 = torch.aten.var_mean.correction %13677, %13678, %int0_15409, %true_15410 : !torch.vtensor<[2,32,10,16384],f32>, !torch.list<int>, !torch.int, !torch.bool -> !torch.vtensor<[2,32,1,1],f32>, !torch.vtensor<[2,32,1,1],f32>
    %float1.000000e-05_15413 = torch.constant.float 1.000000e-05
    %int1_15414 = torch.constant.int 1
    %13679 = torch.aten.add.Scalar %result0_15411, %float1.000000e-05_15413, %int1_15414 : !torch.vtensor<[2,32,1,1],f32>, !torch.float, !torch.int -> !torch.vtensor<[2,32,1,1],f32>
    %13680 = torch.aten.rsqrt %13679 : !torch.vtensor<[2,32,1,1],f32> -> !torch.vtensor<[2,32,1,1],f32>
    %int1_15415 = torch.constant.int 1
    %13681 = torch.aten.sub.Tensor %13676, %result1_15412, %int1_15415 : !torch.vtensor<[2,32,10,16384],f16>, !torch.vtensor<[2,32,1,1],f32>, !torch.int -> !torch.vtensor<[2,32,10,16384],f32>
    %13682 = torch.aten.mul.Tensor %13681, %13680 : !torch.vtensor<[2,32,10,16384],f32>, !torch.vtensor<[2,32,1,1],f32> -> !torch.vtensor<[2,32,10,16384],f32>
    %int2_15416 = torch.constant.int 2
    %int320_15417 = torch.constant.int 320
    %int128_15418 = torch.constant.int 128
    %int128_15419 = torch.constant.int 128
    %13683 = torch.prim.ListConstruct %int2_15416, %int320_15417, %int128_15418, %int128_15419 : (!torch.int, !torch.int, !torch.int, !torch.int) -> !torch.list<int>
    %13684 = torch.aten.view %13682, %13683 : !torch.vtensor<[2,32,10,16384],f32>, !torch.list<int> -> !torch.vtensor<[2,320,128,128],f32>
    %int0_15420 = torch.constant.int 0
    %13685 = torch.aten.unsqueeze %1677, %int0_15420 : !torch.vtensor<[320],f16>, !torch.int -> !torch.vtensor<[1,320],f16>
    %int2_15421 = torch.constant.int 2
    %13686 = torch.aten.unsqueeze %13685, %int2_15421 : !torch.vtensor<[1,320],f16>, !torch.int -> !torch.vtensor<[1,320,1],f16>
    %int3_15422 = torch.constant.int 3
    %13687 = torch.aten.unsqueeze %13686, %int3_15422 : !torch.vtensor<[1,320,1],f16>, !torch.int -> !torch.vtensor<[1,320,1,1],f16>
    %int0_15423 = torch.constant.int 0
    %13688 = torch.aten.unsqueeze %1676, %int0_15423 : !torch.vtensor<[320],f16>, !torch.int -> !torch.vtensor<[1,320],f16>
    %int2_15424 = torch.constant.int 2
    %13689 = torch.aten.unsqueeze %13688, %int2_15424 : !torch.vtensor<[1,320],f16>, !torch.int -> !torch.vtensor<[1,320,1],f16>
    %int3_15425 = torch.constant.int 3
    %13690 = torch.aten.unsqueeze %13689, %int3_15425 : !torch.vtensor<[1,320,1],f16>, !torch.int -> !torch.vtensor<[1,320,1,1],f16>
    %13691 = torch.aten.mul.Tensor %13684, %13690 : !torch.vtensor<[2,320,128,128],f32>, !torch.vtensor<[1,320,1,1],f16> -> !torch.vtensor<[2,320,128,128],f32>
    %int1_15426 = torch.constant.int 1
    %13692 = torch.aten.add.Tensor %13691, %13687, %int1_15426 : !torch.vtensor<[2,320,128,128],f32>, !torch.vtensor<[1,320,1,1],f16>, !torch.int -> !torch.vtensor<[2,320,128,128],f32>
    %int5_15427 = torch.constant.int 5
    %13693 = torch.prims.convert_element_type %13692, %int5_15427 : !torch.vtensor<[2,320,128,128],f32>, !torch.int -> !torch.vtensor<[2,320,128,128],f16>
    %13694 = torch.aten.silu %13693 : !torch.vtensor<[2,320,128,128],f16> -> !torch.vtensor<[2,320,128,128],f16>
    %int1_15428 = torch.constant.int 1
    %int1_15429 = torch.constant.int 1
    %13695 = torch.prim.ListConstruct %int1_15428, %int1_15429 : (!torch.int, !torch.int) -> !torch.list<int>
    %int1_15430 = torch.constant.int 1
    %int1_15431 = torch.constant.int 1
    %13696 = torch.prim.ListConstruct %int1_15430, %int1_15431 : (!torch.int, !torch.int) -> !torch.list<int>
    %int1_15432 = torch.constant.int 1
    %int1_15433 = torch.constant.int 1
    %13697 = torch.prim.ListConstruct %int1_15432, %int1_15433 : (!torch.int, !torch.int) -> !torch.list<int>
    %false_15434 = torch.constant.bool false
    %int0_15435 = torch.constant.int 0
    %int0_15436 = torch.constant.int 0
    %13698 = torch.prim.ListConstruct %int0_15435, %int0_15436 : (!torch.int, !torch.int) -> !torch.list<int>
    %int1_15437 = torch.constant.int 1
    %13699 = torch.aten.convolution %13694, %1678, %1679, %13695, %13696, %13697, %false_15434, %13698, %int1_15437 : !torch.vtensor<[2,320,128,128],f16>, !torch.vtensor<[4,320,3,3],f16>, !torch.vtensor<[4],f16>, !torch.list<int>, !torch.list<int>, !torch.list<int>, !torch.bool, !torch.list<int>, !torch.int -> !torch.vtensor<[2,4,128,128],f16>
    %int0_15438 = torch.constant.int 0
    %int0_15439 = torch.constant.int 0
    %int1_15440 = torch.constant.int 1
    %int1_15441 = torch.constant.int 1
    %13700 = torch.aten.slice.Tensor %13699, %int0_15438, %int0_15439, %int1_15440, %int1_15441 : !torch.vtensor<[2,4,128,128],f16>, !torch.int, !torch.int, !torch.int, !torch.int -> !torch.vtensor<[1,4,128,128],f16>
    %int0_15442 = torch.constant.int 0
    %int1_15443 = torch.constant.int 1
    %int2_15444 = torch.constant.int 2
    %int1_15445 = torch.constant.int 1
    %13701 = torch.aten.slice.Tensor %13699, %int0_15442, %int1_15443, %int2_15444, %int1_15445 : !torch.vtensor<[2,4,128,128],f16>, !torch.int, !torch.int, !torch.int, !torch.int -> !torch.vtensor<[1,4,128,128],f16>
    %int1_15446 = torch.constant.int 1
    %13702 = torch.aten.sub.Tensor %13701, %13700, %int1_15446 : !torch.vtensor<[1,4,128,128],f16>, !torch.vtensor<[1,4,128,128],f16>, !torch.int -> !torch.vtensor<[1,4,128,128],f16>
    %13703 = torch.aten.mul.Tensor %arg5, %13702 : !torch.vtensor<[1],f16>, !torch.vtensor<[1,4,128,128],f16> -> !torch.vtensor<[1,4,128,128],f16>
    %int1_15447 = torch.constant.int 1
    %13704 = torch.aten.add.Tensor %13700, %13703, %int1_15447 : !torch.vtensor<[1,4,128,128],f16>, !torch.vtensor<[1,4,128,128],f16>, !torch.int -> !torch.vtensor<[1,4,128,128],f16>
    return %13704 : !torch.vtensor<[1,4,128,128],f16>
  }
}
